<?xml version="1.0" ?>
<net name="torch-jit-export" version="11">
	<layers>
		<layer id="0" name="actual_input" type="Parameter" version="opset1">
			<data shape="1,1,96,2000" element_type="f32"/>
			<rt_info>
				<attribute name="fused_names" version="0" value="actual_input"/>
			</rt_info>
			<output>
				<port id="0" precision="FP32" names="actual_input">
					<dim>1</dim>
					<dim>1</dim>
					<dim>96</dim>
					<dim>2000</dim>
					<rt_info>
						<attribute name="layout" version="0" layout="[N,C,H,W]"/>
					</rt_info>
				</port>
			</output>
		</layer>
		<layer id="1" name="Constant_3138" type="Const" version="opset1">
			<data element_type="f32" shape="1, 1, 95" offset="0" size="380"/>
			<output>
				<port id="0" precision="FP32">
					<dim>1</dim>
					<dim>1</dim>
					<dim>95</dim>
				</port>
			</output>
		</layer>
		<layer id="2" name="Constant_3137" type="Const" version="opset1">
			<data element_type="f32" shape="1, 1, 1, 1" offset="380" size="4"/>
			<output>
				<port id="0" precision="FP32">
					<dim>1</dim>
					<dim>1</dim>
					<dim>1</dim>
					<dim>1</dim>
				</port>
			</output>
		</layer>
		<layer id="3" name="Constant_3136" type="Const" version="opset1">
			<data element_type="f32" shape="1, 1, 1, 1" offset="384" size="4"/>
			<output>
				<port id="0" precision="FP32">
					<dim>1</dim>
					<dim>1</dim>
					<dim>1</dim>
					<dim>1</dim>
				</port>
			</output>
		</layer>
		<layer id="4" name="Subtract_961" type="Subtract" version="opset1">
			<data auto_broadcast="numpy"/>
			<rt_info>
				<attribute name="fused_names" version="0" value="Subtract_961"/>
				<attribute name="preprocessing" version="0"/>
			</rt_info>
			<input>
				<port id="0" precision="FP32">
					<dim>1</dim>
					<dim>1</dim>
					<dim>96</dim>
					<dim>2000</dim>
				</port>
				<port id="1" precision="FP32">
					<dim>1</dim>
					<dim>1</dim>
					<dim>1</dim>
					<dim>1</dim>
				</port>
			</input>
			<output>
				<port id="2" precision="FP32">
					<dim>1</dim>
					<dim>1</dim>
					<dim>96</dim>
					<dim>2000</dim>
				</port>
			</output>
		</layer>
		<layer id="5" name="Constant_3080" type="Const" version="opset1">
			<data element_type="f32" shape="16, 1, 3, 3" offset="388" size="576"/>
			<rt_info>
				<attribute name="fused_names" version="0" value="642, Constant_962, Convolution_31, Divide_963"/>
				<attribute name="preprocessing" version="0"/>
			</rt_info>
			<output>
				<port id="0" precision="FP32">
					<dim>16</dim>
					<dim>1</dim>
					<dim>3</dim>
					<dim>3</dim>
				</port>
			</output>
		</layer>
		<layer id="6" name="Convolution_31" type="Convolution" version="opset1">
			<data strides="1, 1" dilations="1, 1" pads_begin="1, 1" pads_end="1, 1" auto_pad="explicit"/>
			<rt_info>
				<attribute name="fused_names" version="0" value="642, Constant_962, Convolution_31, Divide_963"/>
				<attribute name="preprocessing" version="0"/>
			</rt_info>
			<input>
				<port id="0" precision="FP32">
					<dim>1</dim>
					<dim>1</dim>
					<dim>96</dim>
					<dim>2000</dim>
				</port>
				<port id="1" precision="FP32">
					<dim>16</dim>
					<dim>1</dim>
					<dim>3</dim>
					<dim>3</dim>
				</port>
			</input>
			<output>
				<port id="2" precision="FP32">
					<dim>1</dim>
					<dim>16</dim>
					<dim>96</dim>
					<dim>2000</dim>
				</port>
			</output>
		</layer>
		<layer id="7" name="Reshape_51" type="Const" version="opset1">
			<data element_type="f32" shape="1, 16, 1, 1" offset="964" size="64"/>
			<output>
				<port id="0" precision="FP32">
					<dim>1</dim>
					<dim>16</dim>
					<dim>1</dim>
					<dim>1</dim>
				</port>
			</output>
		</layer>
		<layer id="8" name="641" type="Add" version="opset1">
			<data auto_broadcast="numpy"/>
			<rt_info>
				<attribute name="fused_names" version="0" value="641, Concat_50, Reshape_51"/>
			</rt_info>
			<input>
				<port id="0" precision="FP32">
					<dim>1</dim>
					<dim>16</dim>
					<dim>96</dim>
					<dim>2000</dim>
				</port>
				<port id="1" precision="FP32">
					<dim>1</dim>
					<dim>16</dim>
					<dim>1</dim>
					<dim>1</dim>
				</port>
			</input>
			<output>
				<port id="2" precision="FP32" names="641">
					<dim>1</dim>
					<dim>16</dim>
					<dim>96</dim>
					<dim>2000</dim>
				</port>
			</output>
		</layer>
		<layer id="9" name="Constant_79" type="Const" version="opset1">
			<data element_type="f32" shape="1" offset="1028" size="4"/>
			<rt_info>
				<attribute name="fused_names" version="0" value="Constant_79"/>
			</rt_info>
			<output>
				<port id="0" precision="FP32">
					<dim>1</dim>
				</port>
			</output>
		</layer>
		<layer id="10" name="74" type="PReLU" version="opset1">
			<rt_info>
				<attribute name="fused_names" version="0" value="74"/>
			</rt_info>
			<input>
				<port id="0" precision="FP32">
					<dim>1</dim>
					<dim>16</dim>
					<dim>96</dim>
					<dim>2000</dim>
				</port>
				<port id="1" precision="FP32">
					<dim>1</dim>
				</port>
			</input>
			<output>
				<port id="2" precision="FP32" names="74">
					<dim>1</dim>
					<dim>16</dim>
					<dim>96</dim>
					<dim>2000</dim>
				</port>
			</output>
		</layer>
		<layer id="11" name="75" type="MaxPool" version="opset8">
			<data strides="2, 2" dilations="1, 1" pads_begin="0, 0" pads_end="0, 0" kernel="2, 2" rounding_type="floor" auto_pad="explicit" index_element_type="i64" axis="0"/>
			<rt_info>
				<attribute name="fused_names" version="0" value="75"/>
			</rt_info>
			<input>
				<port id="0" precision="FP32">
					<dim>1</dim>
					<dim>16</dim>
					<dim>96</dim>
					<dim>2000</dim>
				</port>
			</input>
			<output>
				<port id="1" precision="FP32" names="75">
					<dim>1</dim>
					<dim>16</dim>
					<dim>48</dim>
					<dim>1000</dim>
				</port>
				<port id="2" precision="I64">
					<dim>1</dim>
					<dim>16</dim>
					<dim>48</dim>
					<dim>1000</dim>
				</port>
			</output>
		</layer>
		<layer id="12" name="645" type="Const" version="opset1">
			<data element_type="f32" shape="32, 16, 3, 3" offset="1032" size="18432"/>
			<rt_info>
				<attribute name="fused_names" version="0" value="645"/>
			</rt_info>
			<output>
				<port id="0" precision="FP32" names="645">
					<dim>32</dim>
					<dim>16</dim>
					<dim>3</dim>
					<dim>3</dim>
				</port>
			</output>
		</layer>
		<layer id="13" name="Convolution_82" type="Convolution" version="opset1">
			<data strides="1, 1" dilations="1, 1" pads_begin="1, 1" pads_end="1, 1" auto_pad="explicit"/>
			<rt_info>
				<attribute name="fused_names" version="0" value="Convolution_82"/>
			</rt_info>
			<input>
				<port id="0" precision="FP32">
					<dim>1</dim>
					<dim>16</dim>
					<dim>48</dim>
					<dim>1000</dim>
				</port>
				<port id="1" precision="FP32">
					<dim>32</dim>
					<dim>16</dim>
					<dim>3</dim>
					<dim>3</dim>
				</port>
			</input>
			<output>
				<port id="2" precision="FP32">
					<dim>1</dim>
					<dim>32</dim>
					<dim>48</dim>
					<dim>1000</dim>
				</port>
			</output>
		</layer>
		<layer id="14" name="Reshape_102" type="Const" version="opset1">
			<data element_type="f32" shape="1, 32, 1, 1" offset="19464" size="128"/>
			<output>
				<port id="0" precision="FP32">
					<dim>1</dim>
					<dim>32</dim>
					<dim>1</dim>
					<dim>1</dim>
				</port>
			</output>
		</layer>
		<layer id="15" name="644" type="Add" version="opset1">
			<data auto_broadcast="numpy"/>
			<rt_info>
				<attribute name="fused_names" version="0" value="644, Concat_101, Reshape_102"/>
			</rt_info>
			<input>
				<port id="0" precision="FP32">
					<dim>1</dim>
					<dim>32</dim>
					<dim>48</dim>
					<dim>1000</dim>
				</port>
				<port id="1" precision="FP32">
					<dim>1</dim>
					<dim>32</dim>
					<dim>1</dim>
					<dim>1</dim>
				</port>
			</input>
			<output>
				<port id="2" precision="FP32" names="644">
					<dim>1</dim>
					<dim>32</dim>
					<dim>48</dim>
					<dim>1000</dim>
				</port>
			</output>
		</layer>
		<layer id="16" name="Constant_130" type="Const" version="opset1">
			<data element_type="f32" shape="1" offset="1028" size="4"/>
			<rt_info>
				<attribute name="fused_names" version="0" value="Constant_130"/>
			</rt_info>
			<output>
				<port id="0" precision="FP32">
					<dim>1</dim>
				</port>
			</output>
		</layer>
		<layer id="17" name="78" type="PReLU" version="opset1">
			<rt_info>
				<attribute name="fused_names" version="0" value="78"/>
			</rt_info>
			<input>
				<port id="0" precision="FP32">
					<dim>1</dim>
					<dim>32</dim>
					<dim>48</dim>
					<dim>1000</dim>
				</port>
				<port id="1" precision="FP32">
					<dim>1</dim>
				</port>
			</input>
			<output>
				<port id="2" precision="FP32" names="78">
					<dim>1</dim>
					<dim>32</dim>
					<dim>48</dim>
					<dim>1000</dim>
				</port>
			</output>
		</layer>
		<layer id="18" name="79" type="MaxPool" version="opset8">
			<data strides="2, 2" dilations="1, 1" pads_begin="0, 0" pads_end="0, 0" kernel="2, 2" rounding_type="floor" auto_pad="explicit" index_element_type="i64" axis="0"/>
			<rt_info>
				<attribute name="fused_names" version="0" value="79"/>
			</rt_info>
			<input>
				<port id="0" precision="FP32">
					<dim>1</dim>
					<dim>32</dim>
					<dim>48</dim>
					<dim>1000</dim>
				</port>
			</input>
			<output>
				<port id="1" precision="FP32" names="79">
					<dim>1</dim>
					<dim>32</dim>
					<dim>24</dim>
					<dim>500</dim>
				</port>
				<port id="2" precision="I64">
					<dim>1</dim>
					<dim>32</dim>
					<dim>24</dim>
					<dim>500</dim>
				</port>
			</output>
		</layer>
		<layer id="19" name="648" type="Const" version="opset1">
			<data element_type="f32" shape="48, 32, 3, 3" offset="19592" size="55296"/>
			<rt_info>
				<attribute name="fused_names" version="0" value="648"/>
			</rt_info>
			<output>
				<port id="0" precision="FP32" names="648">
					<dim>48</dim>
					<dim>32</dim>
					<dim>3</dim>
					<dim>3</dim>
				</port>
			</output>
		</layer>
		<layer id="20" name="Convolution_133" type="Convolution" version="opset1">
			<data strides="1, 1" dilations="1, 1" pads_begin="1, 1" pads_end="1, 1" auto_pad="explicit"/>
			<rt_info>
				<attribute name="fused_names" version="0" value="Convolution_133"/>
			</rt_info>
			<input>
				<port id="0" precision="FP32">
					<dim>1</dim>
					<dim>32</dim>
					<dim>24</dim>
					<dim>500</dim>
				</port>
				<port id="1" precision="FP32">
					<dim>48</dim>
					<dim>32</dim>
					<dim>3</dim>
					<dim>3</dim>
				</port>
			</input>
			<output>
				<port id="2" precision="FP32">
					<dim>1</dim>
					<dim>48</dim>
					<dim>24</dim>
					<dim>500</dim>
				</port>
			</output>
		</layer>
		<layer id="21" name="Reshape_153" type="Const" version="opset1">
			<data element_type="f32" shape="1, 48, 1, 1" offset="74888" size="192"/>
			<output>
				<port id="0" precision="FP32">
					<dim>1</dim>
					<dim>48</dim>
					<dim>1</dim>
					<dim>1</dim>
				</port>
			</output>
		</layer>
		<layer id="22" name="647" type="Add" version="opset1">
			<data auto_broadcast="numpy"/>
			<rt_info>
				<attribute name="fused_names" version="0" value="647, Concat_152, Reshape_153"/>
			</rt_info>
			<input>
				<port id="0" precision="FP32">
					<dim>1</dim>
					<dim>48</dim>
					<dim>24</dim>
					<dim>500</dim>
				</port>
				<port id="1" precision="FP32">
					<dim>1</dim>
					<dim>48</dim>
					<dim>1</dim>
					<dim>1</dim>
				</port>
			</input>
			<output>
				<port id="2" precision="FP32" names="647">
					<dim>1</dim>
					<dim>48</dim>
					<dim>24</dim>
					<dim>500</dim>
				</port>
			</output>
		</layer>
		<layer id="23" name="Constant_181" type="Const" version="opset1">
			<data element_type="f32" shape="1" offset="1028" size="4"/>
			<rt_info>
				<attribute name="fused_names" version="0" value="Constant_181"/>
			</rt_info>
			<output>
				<port id="0" precision="FP32">
					<dim>1</dim>
				</port>
			</output>
		</layer>
		<layer id="24" name="82" type="PReLU" version="opset1">
			<rt_info>
				<attribute name="fused_names" version="0" value="82"/>
			</rt_info>
			<input>
				<port id="0" precision="FP32">
					<dim>1</dim>
					<dim>48</dim>
					<dim>24</dim>
					<dim>500</dim>
				</port>
				<port id="1" precision="FP32">
					<dim>1</dim>
				</port>
			</input>
			<output>
				<port id="2" precision="FP32" names="82">
					<dim>1</dim>
					<dim>48</dim>
					<dim>24</dim>
					<dim>500</dim>
				</port>
			</output>
		</layer>
		<layer id="25" name="83" type="MaxPool" version="opset8">
			<data strides="2, 2" dilations="1, 1" pads_begin="0, 0" pads_end="0, 0" kernel="2, 2" rounding_type="floor" auto_pad="explicit" index_element_type="i64" axis="0"/>
			<rt_info>
				<attribute name="fused_names" version="0" value="83"/>
			</rt_info>
			<input>
				<port id="0" precision="FP32">
					<dim>1</dim>
					<dim>48</dim>
					<dim>24</dim>
					<dim>500</dim>
				</port>
			</input>
			<output>
				<port id="1" precision="FP32" names="83">
					<dim>1</dim>
					<dim>48</dim>
					<dim>12</dim>
					<dim>250</dim>
				</port>
				<port id="2" precision="I64">
					<dim>1</dim>
					<dim>48</dim>
					<dim>12</dim>
					<dim>250</dim>
				</port>
			</output>
		</layer>
		<layer id="26" name="651" type="Const" version="opset1">
			<data element_type="f32" shape="64, 48, 3, 3" offset="75080" size="110592"/>
			<rt_info>
				<attribute name="fused_names" version="0" value="651"/>
			</rt_info>
			<output>
				<port id="0" precision="FP32" names="651">
					<dim>64</dim>
					<dim>48</dim>
					<dim>3</dim>
					<dim>3</dim>
				</port>
			</output>
		</layer>
		<layer id="27" name="Convolution_184" type="Convolution" version="opset1">
			<data strides="1, 1" dilations="1, 1" pads_begin="1, 1" pads_end="1, 1" auto_pad="explicit"/>
			<rt_info>
				<attribute name="fused_names" version="0" value="Convolution_184"/>
			</rt_info>
			<input>
				<port id="0" precision="FP32">
					<dim>1</dim>
					<dim>48</dim>
					<dim>12</dim>
					<dim>250</dim>
				</port>
				<port id="1" precision="FP32">
					<dim>64</dim>
					<dim>48</dim>
					<dim>3</dim>
					<dim>3</dim>
				</port>
			</input>
			<output>
				<port id="2" precision="FP32">
					<dim>1</dim>
					<dim>64</dim>
					<dim>12</dim>
					<dim>250</dim>
				</port>
			</output>
		</layer>
		<layer id="28" name="Reshape_204" type="Const" version="opset1">
			<data element_type="f32" shape="1, 64, 1, 1" offset="185672" size="256"/>
			<output>
				<port id="0" precision="FP32">
					<dim>1</dim>
					<dim>64</dim>
					<dim>1</dim>
					<dim>1</dim>
				</port>
			</output>
		</layer>
		<layer id="29" name="650" type="Add" version="opset1">
			<data auto_broadcast="numpy"/>
			<rt_info>
				<attribute name="fused_names" version="0" value="650, Concat_203, Reshape_204"/>
			</rt_info>
			<input>
				<port id="0" precision="FP32">
					<dim>1</dim>
					<dim>64</dim>
					<dim>12</dim>
					<dim>250</dim>
				</port>
				<port id="1" precision="FP32">
					<dim>1</dim>
					<dim>64</dim>
					<dim>1</dim>
					<dim>1</dim>
				</port>
			</input>
			<output>
				<port id="2" precision="FP32" names="650">
					<dim>1</dim>
					<dim>64</dim>
					<dim>12</dim>
					<dim>250</dim>
				</port>
			</output>
		</layer>
		<layer id="30" name="Constant_232" type="Const" version="opset1">
			<data element_type="f32" shape="1" offset="1028" size="4"/>
			<rt_info>
				<attribute name="fused_names" version="0" value="Constant_232"/>
			</rt_info>
			<output>
				<port id="0" precision="FP32">
					<dim>1</dim>
				</port>
			</output>
		</layer>
		<layer id="31" name="86" type="PReLU" version="opset1">
			<rt_info>
				<attribute name="fused_names" version="0" value="86"/>
			</rt_info>
			<input>
				<port id="0" precision="FP32">
					<dim>1</dim>
					<dim>64</dim>
					<dim>12</dim>
					<dim>250</dim>
				</port>
				<port id="1" precision="FP32">
					<dim>1</dim>
				</port>
			</input>
			<output>
				<port id="2" precision="FP32" names="86">
					<dim>1</dim>
					<dim>64</dim>
					<dim>12</dim>
					<dim>250</dim>
				</port>
			</output>
		</layer>
		<layer id="32" name="654" type="Const" version="opset1">
			<data element_type="f32" shape="80, 64, 3, 3" offset="185928" size="184320"/>
			<rt_info>
				<attribute name="fused_names" version="0" value="654"/>
			</rt_info>
			<output>
				<port id="0" precision="FP32" names="654">
					<dim>80</dim>
					<dim>64</dim>
					<dim>3</dim>
					<dim>3</dim>
				</port>
			</output>
		</layer>
		<layer id="33" name="Convolution_234" type="Convolution" version="opset1">
			<data strides="1, 1" dilations="1, 1" pads_begin="1, 1" pads_end="1, 1" auto_pad="explicit"/>
			<rt_info>
				<attribute name="fused_names" version="0" value="Convolution_234"/>
			</rt_info>
			<input>
				<port id="0" precision="FP32">
					<dim>1</dim>
					<dim>64</dim>
					<dim>12</dim>
					<dim>250</dim>
				</port>
				<port id="1" precision="FP32">
					<dim>80</dim>
					<dim>64</dim>
					<dim>3</dim>
					<dim>3</dim>
				</port>
			</input>
			<output>
				<port id="2" precision="FP32">
					<dim>1</dim>
					<dim>80</dim>
					<dim>12</dim>
					<dim>250</dim>
				</port>
			</output>
		</layer>
		<layer id="34" name="Reshape_254" type="Const" version="opset1">
			<data element_type="f32" shape="1, 80, 1, 1" offset="370248" size="320"/>
			<output>
				<port id="0" precision="FP32">
					<dim>1</dim>
					<dim>80</dim>
					<dim>1</dim>
					<dim>1</dim>
				</port>
			</output>
		</layer>
		<layer id="35" name="653" type="Add" version="opset1">
			<data auto_broadcast="numpy"/>
			<rt_info>
				<attribute name="fused_names" version="0" value="653, Concat_253, Reshape_254"/>
			</rt_info>
			<input>
				<port id="0" precision="FP32">
					<dim>1</dim>
					<dim>80</dim>
					<dim>12</dim>
					<dim>250</dim>
				</port>
				<port id="1" precision="FP32">
					<dim>1</dim>
					<dim>80</dim>
					<dim>1</dim>
					<dim>1</dim>
				</port>
			</input>
			<output>
				<port id="2" precision="FP32" names="653">
					<dim>1</dim>
					<dim>80</dim>
					<dim>12</dim>
					<dim>250</dim>
				</port>
			</output>
		</layer>
		<layer id="36" name="Constant_282" type="Const" version="opset1">
			<data element_type="f32" shape="1" offset="1028" size="4"/>
			<rt_info>
				<attribute name="fused_names" version="0" value="Constant_282"/>
			</rt_info>
			<output>
				<port id="0" precision="FP32">
					<dim>1</dim>
				</port>
			</output>
		</layer>
		<layer id="37" name="89" type="PReLU" version="opset1">
			<rt_info>
				<attribute name="fused_names" version="0" value="89"/>
			</rt_info>
			<input>
				<port id="0" precision="FP32">
					<dim>1</dim>
					<dim>80</dim>
					<dim>12</dim>
					<dim>250</dim>
				</port>
				<port id="1" precision="FP32">
					<dim>1</dim>
				</port>
			</input>
			<output>
				<port id="2" precision="FP32" names="89">
					<dim>1</dim>
					<dim>80</dim>
					<dim>12</dim>
					<dim>250</dim>
				</port>
			</output>
		</layer>
		<layer id="38" name="Constant_284" type="Const" version="opset1">
			<data element_type="i64" shape="4" offset="370568" size="32"/>
			<rt_info>
				<attribute name="fused_names" version="0" value="Constant_284"/>
			</rt_info>
			<output>
				<port id="0" precision="I64">
					<dim>4</dim>
				</port>
			</output>
		</layer>
		<layer id="39" name="90" type="Transpose" version="opset1">
			<rt_info>
				<attribute name="fused_names" version="0" value="90"/>
			</rt_info>
			<input>
				<port id="0" precision="FP32">
					<dim>1</dim>
					<dim>80</dim>
					<dim>12</dim>
					<dim>250</dim>
				</port>
				<port id="1" precision="I64">
					<dim>4</dim>
				</port>
			</input>
			<output>
				<port id="2" precision="FP32" names="90">
					<dim>1</dim>
					<dim>80</dim>
					<dim>250</dim>
					<dim>12</dim>
				</port>
			</output>
		</layer>
		<layer id="40" name="Constant_3054" type="Const" version="opset1">
			<data element_type="f32" shape="1, 12" offset="370600" size="48"/>
			<rt_info>
				<attribute name="fused_names" version="0" value="656, 92"/>
			</rt_info>
			<output>
				<port id="0" precision="FP32">
					<dim>1</dim>
					<dim>12</dim>
				</port>
			</output>
		</layer>
		<layer id="41" name="92" type="MatMul" version="opset1">
			<data transpose_a="false" transpose_b="true"/>
			<rt_info>
				<attribute name="fused_names" version="0" value="656, 92"/>
			</rt_info>
			<input>
				<port id="0" precision="FP32">
					<dim>1</dim>
					<dim>80</dim>
					<dim>250</dim>
					<dim>12</dim>
				</port>
				<port id="1" precision="FP32">
					<dim>1</dim>
					<dim>12</dim>
				</port>
			</input>
			<output>
				<port id="2" precision="FP32" names="92">
					<dim>1</dim>
					<dim>80</dim>
					<dim>250</dim>
					<dim>1</dim>
				</port>
			</output>
		</layer>
		<layer id="42" name="93" type="Add" version="opset1">
			<data auto_broadcast="numpy"/>
			<rt_info>
				<attribute name="fused_names" version="0" value="93"/>
			</rt_info>
			<input>
				<port id="0" precision="FP32">
					<dim>1</dim>
					<dim>1</dim>
					<dim>1</dim>
					<dim>1</dim>
				</port>
				<port id="1" precision="FP32">
					<dim>1</dim>
					<dim>80</dim>
					<dim>250</dim>
					<dim>1</dim>
				</port>
			</input>
			<output>
				<port id="2" precision="FP32" names="93">
					<dim>1</dim>
					<dim>80</dim>
					<dim>250</dim>
					<dim>1</dim>
				</port>
			</output>
		</layer>
		<layer id="43" name="Constant_3021" type="Const" version="opset1">
			<data element_type="i64" shape="1" offset="370648" size="8"/>
			<rt_info>
				<attribute name="fused_names" version="0" value="94, 95"/>
			</rt_info>
			<output>
				<port id="0" precision="I64">
					<dim>1</dim>
				</port>
			</output>
		</layer>
		<layer id="44" name="Squeeze_3022" type="Squeeze" version="opset1">
			<rt_info>
				<attribute name="fused_names" version="0" value="94, 95"/>
			</rt_info>
			<input>
				<port id="0" precision="FP32">
					<dim>1</dim>
					<dim>80</dim>
					<dim>250</dim>
					<dim>1</dim>
				</port>
				<port id="1" precision="I64">
					<dim>1</dim>
				</port>
			</input>
			<output>
				<port id="2" precision="FP32" names="95">
					<dim>1</dim>
					<dim>80</dim>
					<dim>250</dim>
				</port>
			</output>
		</layer>
		<layer id="45" name="Constant_3025" type="Const" version="opset1">
			<data element_type="i64" shape="3" offset="370656" size="24"/>
			<output>
				<port id="0" precision="I64">
					<dim>3</dim>
				</port>
			</output>
		</layer>
		<layer id="46" name="Transpose_416" type="Transpose" version="opset1">
			<rt_info>
				<attribute name="fused_names" version="0" value="114, Transpose_416"/>
			</rt_info>
			<input>
				<port id="0" precision="FP32">
					<dim>1</dim>
					<dim>80</dim>
					<dim>250</dim>
				</port>
				<port id="1" precision="I64">
					<dim>3</dim>
				</port>
			</input>
			<output>
				<port id="2" precision="FP32">
					<dim>1</dim>
					<dim>250</dim>
					<dim>80</dim>
				</port>
			</output>
		</layer>
		<layer id="47" name="Constant_302" type="Const" version="opset1">
			<data element_type="f32" shape="" offset="370680" size="4"/>
			<rt_info>
				<attribute name="fused_names" version="0" value="Constant_302"/>
			</rt_info>
			<output>
				<port id="0" precision="FP32"/>
			</output>
		</layer>
		<layer id="48" name="657" type="Const" version="opset1">
			<data element_type="i64" shape="1" offset="370684" size="8"/>
			<rt_info>
				<attribute name="fused_names" version="0" value="657"/>
			</rt_info>
			<output>
				<port id="0" precision="I64" names="657">
					<dim>1</dim>
				</port>
			</output>
		</layer>
		<layer id="49" name="Constant_292" type="Const" version="opset1">
			<data element_type="i64" shape="3" offset="370656" size="24"/>
			<rt_info>
				<attribute name="fused_names" version="0" value="Constant_292"/>
			</rt_info>
			<output>
				<port id="0" precision="I64">
					<dim>3</dim>
				</port>
			</output>
		</layer>
		<layer id="50" name="96" type="Transpose" version="opset1">
			<rt_info>
				<attribute name="fused_names" version="0" value="96"/>
			</rt_info>
			<input>
				<port id="0" precision="FP32">
					<dim>1</dim>
					<dim>80</dim>
					<dim>250</dim>
				</port>
				<port id="1" precision="I64">
					<dim>3</dim>
				</port>
			</input>
			<output>
				<port id="2" precision="FP32" names="96">
					<dim>1</dim>
					<dim>250</dim>
					<dim>80</dim>
				</port>
			</output>
		</layer>
		<layer id="51" name="97" type="ShapeOf" version="opset3">
			<data output_type="i64"/>
			<rt_info>
				<attribute name="fused_names" version="0" value="97"/>
			</rt_info>
			<input>
				<port id="0" precision="FP32">
					<dim>1</dim>
					<dim>250</dim>
					<dim>80</dim>
				</port>
			</input>
			<output>
				<port id="1" precision="I64" names="97">
					<dim>3</dim>
				</port>
			</output>
		</layer>
		<layer id="52" name="Constant_2708" type="Const" version="opset1">
			<data element_type="i64" shape="1" offset="370692" size="8"/>
			<rt_info>
				<attribute name="fused_names" version="0" value="103, 98, 99, Constant_296, Constant_298"/>
			</rt_info>
			<output>
				<port id="0" precision="I64">
					<dim>1</dim>
				</port>
			</output>
		</layer>
		<layer id="53" name="Constant_296" type="Const" version="opset1">
			<data element_type="i64" shape="" offset="370692" size="8"/>
			<rt_info>
				<attribute name="fused_names" version="0" value="Constant_296"/>
			</rt_info>
			<output>
				<port id="0" precision="I64"/>
			</output>
		</layer>
		<layer id="54" name="99" type="Gather" version="opset8">
			<data batch_dims="0"/>
			<rt_info>
				<attribute name="fused_names" version="0" value="103, 98, 99, Constant_296, Constant_298"/>
			</rt_info>
			<input>
				<port id="0" precision="I64">
					<dim>3</dim>
				</port>
				<port id="1" precision="I64">
					<dim>1</dim>
				</port>
				<port id="2" precision="I64"/>
			</input>
			<output>
				<port id="3" precision="I64" names="103">
					<dim>1</dim>
				</port>
			</output>
		</layer>
		<layer id="55" name="658" type="Const" version="opset1">
			<data element_type="i64" shape="1" offset="370700" size="8"/>
			<rt_info>
				<attribute name="fused_names" version="0" value="658"/>
			</rt_info>
			<output>
				<port id="0" precision="I64" names="658">
					<dim>1</dim>
				</port>
			</output>
		</layer>
		<layer id="56" name="105" type="Concat" version="opset1">
			<data axis="0"/>
			<rt_info>
				<attribute name="fused_names" version="0" value="105, 657, 658"/>
			</rt_info>
			<input>
				<port id="0" precision="I64">
					<dim>1</dim>
				</port>
				<port id="1" precision="I64">
					<dim>1</dim>
				</port>
				<port id="2" precision="I64">
					<dim>1</dim>
				</port>
			</input>
			<output>
				<port id="3" precision="I64" names="105">
					<dim>3</dim>
				</port>
			</output>
		</layer>
		<layer id="57" name="106" type="Broadcast" version="opset3">
			<data mode="numpy"/>
			<rt_info>
				<attribute name="fused_names" version="0" value="106"/>
			</rt_info>
			<input>
				<port id="0" precision="FP32"/>
				<port id="1" precision="I64">
					<dim>3</dim>
				</port>
			</input>
			<output>
				<port id="2" precision="FP32" names="106">
					<dim>4</dim>
					<dim>1</dim>
					<dim>256</dim>
				</port>
			</output>
		</layer>
		<layer id="58" name="232" type="Const" version="opset1">
			<data element_type="i64" shape="1" offset="370692" size="8"/>
			<rt_info>
				<attribute name="fused_names" version="0" value="234, Broadcast_375"/>
			</rt_info>
			<output>
				<port id="0" precision="I64" names="232">
					<dim>1</dim>
				</port>
			</output>
		</layer>
		<layer id="59" name="233" type="Const" version="opset1">
			<data element_type="i64" shape="1" offset="370708" size="8"/>
			<rt_info>
				<attribute name="fused_names" version="0" value="234, Broadcast_375"/>
			</rt_info>
			<output>
				<port id="0" precision="I64" names="233">
					<dim>1</dim>
				</port>
			</output>
		</layer>
		<layer id="60" name="Broadcast_375" type="Const" version="opset1">
			<data element_type="i64" shape="1" offset="370716" size="8"/>
			<rt_info>
				<attribute name="fused_names" version="0" value="234, Broadcast_375"/>
			</rt_info>
			<output>
				<port id="0" precision="I64">
					<dim>1</dim>
				</port>
			</output>
		</layer>
		<layer id="61" name="234" type="StridedSlice" version="opset1">
			<data begin_mask="0" end_mask="0" new_axis_mask="" shrink_axis_mask="" ellipsis_mask=""/>
			<rt_info>
				<attribute name="fused_names" version="0" value="234, Broadcast_375"/>
			</rt_info>
			<input>
				<port id="0" precision="FP32">
					<dim>4</dim>
					<dim>1</dim>
					<dim>256</dim>
				</port>
				<port id="1" precision="I64">
					<dim>1</dim>
				</port>
				<port id="2" precision="I64">
					<dim>1</dim>
				</port>
				<port id="3" precision="I64">
					<dim>1</dim>
				</port>
			</input>
			<output>
				<port id="4" precision="FP32" names="234">
					<dim>2</dim>
					<dim>1</dim>
					<dim>256</dim>
				</port>
			</output>
		</layer>
		<layer id="62" name="Constant_455" type="Const" version="opset1">
			<data element_type="i64" shape="3" offset="370724" size="24"/>
			<rt_info>
				<attribute name="fused_names" version="0" value="Constant_455"/>
			</rt_info>
			<output>
				<port id="0" precision="I64">
					<dim>3</dim>
				</port>
			</output>
		</layer>
		<layer id="63" name="Transpose_456" type="Transpose" version="opset1">
			<rt_info>
				<attribute name="fused_names" version="0" value="Transpose_456"/>
			</rt_info>
			<input>
				<port id="0" precision="FP32">
					<dim>2</dim>
					<dim>1</dim>
					<dim>256</dim>
				</port>
				<port id="1" precision="I64">
					<dim>3</dim>
				</port>
			</input>
			<output>
				<port id="2" precision="FP32">
					<dim>1</dim>
					<dim>2</dim>
					<dim>256</dim>
				</port>
			</output>
		</layer>
		<layer id="64" name="Constant_337" type="Const" version="opset1">
			<data element_type="f32" shape="" offset="370680" size="4"/>
			<rt_info>
				<attribute name="fused_names" version="0" value="Constant_337"/>
			</rt_info>
			<output>
				<port id="0" precision="FP32"/>
			</output>
		</layer>
		<layer id="65" name="659" type="Const" version="opset1">
			<data element_type="i64" shape="1" offset="370684" size="8"/>
			<rt_info>
				<attribute name="fused_names" version="0" value="659"/>
			</rt_info>
			<output>
				<port id="0" precision="I64" names="659">
					<dim>1</dim>
				</port>
			</output>
		</layer>
		<layer id="66" name="Constant_2717" type="Const" version="opset1">
			<data element_type="i64" shape="1" offset="370692" size="8"/>
			<rt_info>
				<attribute name="fused_names" version="0" value="110, 98, 99, Constant_296, Constant_333"/>
			</rt_info>
			<output>
				<port id="0" precision="I64">
					<dim>1</dim>
				</port>
			</output>
		</layer>
		<layer id="67" name="990" type="Gather" version="opset8">
			<data batch_dims="0"/>
			<rt_info>
				<attribute name="fused_names" version="0" value="110, 98, 99, Constant_296, Constant_333"/>
			</rt_info>
			<input>
				<port id="0" precision="I64">
					<dim>3</dim>
				</port>
				<port id="1" precision="I64">
					<dim>1</dim>
				</port>
				<port id="2" precision="I64"/>
			</input>
			<output>
				<port id="3" precision="I64" names="110">
					<dim>1</dim>
				</port>
			</output>
		</layer>
		<layer id="68" name="660" type="Const" version="opset1">
			<data element_type="i64" shape="1" offset="370700" size="8"/>
			<rt_info>
				<attribute name="fused_names" version="0" value="660"/>
			</rt_info>
			<output>
				<port id="0" precision="I64" names="660">
					<dim>1</dim>
				</port>
			</output>
		</layer>
		<layer id="69" name="112" type="Concat" version="opset1">
			<data axis="0"/>
			<rt_info>
				<attribute name="fused_names" version="0" value="112, 659, 660"/>
			</rt_info>
			<input>
				<port id="0" precision="I64">
					<dim>1</dim>
				</port>
				<port id="1" precision="I64">
					<dim>1</dim>
				</port>
				<port id="2" precision="I64">
					<dim>1</dim>
				</port>
			</input>
			<output>
				<port id="3" precision="I64" names="112">
					<dim>3</dim>
				</port>
			</output>
		</layer>
		<layer id="70" name="113" type="Broadcast" version="opset3">
			<data mode="numpy"/>
			<rt_info>
				<attribute name="fused_names" version="0" value="113"/>
			</rt_info>
			<input>
				<port id="0" precision="FP32"/>
				<port id="1" precision="I64">
					<dim>3</dim>
				</port>
			</input>
			<output>
				<port id="2" precision="FP32" names="113">
					<dim>4</dim>
					<dim>1</dim>
					<dim>256</dim>
				</port>
			</output>
		</layer>
		<layer id="71" name="236" type="Const" version="opset1">
			<data element_type="i64" shape="1" offset="370692" size="8"/>
			<rt_info>
				<attribute name="fused_names" version="0" value="238, Broadcast_397"/>
			</rt_info>
			<output>
				<port id="0" precision="I64" names="236">
					<dim>1</dim>
				</port>
			</output>
		</layer>
		<layer id="72" name="237" type="Const" version="opset1">
			<data element_type="i64" shape="1" offset="370708" size="8"/>
			<rt_info>
				<attribute name="fused_names" version="0" value="238, Broadcast_397"/>
			</rt_info>
			<output>
				<port id="0" precision="I64" names="237">
					<dim>1</dim>
				</port>
			</output>
		</layer>
		<layer id="73" name="Broadcast_397" type="Const" version="opset1">
			<data element_type="i64" shape="1" offset="370716" size="8"/>
			<rt_info>
				<attribute name="fused_names" version="0" value="238, Broadcast_397"/>
			</rt_info>
			<output>
				<port id="0" precision="I64">
					<dim>1</dim>
				</port>
			</output>
		</layer>
		<layer id="74" name="238" type="StridedSlice" version="opset1">
			<data begin_mask="0" end_mask="0" new_axis_mask="" shrink_axis_mask="" ellipsis_mask=""/>
			<rt_info>
				<attribute name="fused_names" version="0" value="238, Broadcast_397"/>
			</rt_info>
			<input>
				<port id="0" precision="FP32">
					<dim>4</dim>
					<dim>1</dim>
					<dim>256</dim>
				</port>
				<port id="1" precision="I64">
					<dim>1</dim>
				</port>
				<port id="2" precision="I64">
					<dim>1</dim>
				</port>
				<port id="3" precision="I64">
					<dim>1</dim>
				</port>
			</input>
			<output>
				<port id="4" precision="FP32" names="238">
					<dim>2</dim>
					<dim>1</dim>
					<dim>256</dim>
				</port>
			</output>
		</layer>
		<layer id="75" name="Constant_457" type="Const" version="opset1">
			<data element_type="i64" shape="3" offset="370724" size="24"/>
			<rt_info>
				<attribute name="fused_names" version="0" value="Constant_457"/>
			</rt_info>
			<output>
				<port id="0" precision="I64">
					<dim>3</dim>
				</port>
			</output>
		</layer>
		<layer id="76" name="Transpose_458" type="Transpose" version="opset1">
			<rt_info>
				<attribute name="fused_names" version="0" value="Transpose_458"/>
			</rt_info>
			<input>
				<port id="0" precision="FP32">
					<dim>2</dim>
					<dim>1</dim>
					<dim>256</dim>
				</port>
				<port id="1" precision="I64">
					<dim>3</dim>
				</port>
			</input>
			<output>
				<port id="2" precision="FP32">
					<dim>1</dim>
					<dim>2</dim>
					<dim>256</dim>
				</port>
			</output>
		</layer>
		<layer id="77" name="ShapeOf_423" type="ShapeOf" version="opset3">
			<data output_type="i64"/>
			<rt_info>
				<attribute name="fused_names" version="0" value="ShapeOf_423"/>
			</rt_info>
			<input>
				<port id="0" precision="FP32">
					<dim>1</dim>
					<dim>250</dim>
					<dim>80</dim>
				</port>
			</input>
			<output>
				<port id="1" precision="I64">
					<dim>3</dim>
				</port>
			</output>
		</layer>
		<layer id="78" name="Constant_427" type="Const" version="opset1">
			<data element_type="i32" shape="1" offset="370748" size="4"/>
			<rt_info>
				<attribute name="fused_names" version="0" value="Constant_427"/>
			</rt_info>
			<output>
				<port id="0" precision="I32">
					<dim>1</dim>
				</port>
			</output>
		</layer>
		<layer id="79" name="Constant_424" type="Const" version="opset1">
			<data element_type="i32" shape="1" offset="370680" size="4"/>
			<rt_info>
				<attribute name="fused_names" version="0" value="Constant_424"/>
			</rt_info>
			<output>
				<port id="0" precision="I32">
					<dim>1</dim>
				</port>
			</output>
		</layer>
		<layer id="80" name="Gather_428" type="Gather" version="opset8">
			<data batch_dims="0"/>
			<rt_info>
				<attribute name="fused_names" version="0" value="Constant_424, Gather_428"/>
			</rt_info>
			<input>
				<port id="0" precision="I64">
					<dim>3</dim>
				</port>
				<port id="1" precision="I32">
					<dim>1</dim>
				</port>
				<port id="2" precision="I32">
					<dim>1</dim>
				</port>
			</input>
			<output>
				<port id="3" precision="I64">
					<dim>1</dim>
				</port>
			</output>
		</layer>
		<layer id="81" name="Constant_425" type="Const" version="opset1">
			<data element_type="i32" shape="1" offset="370680" size="4"/>
			<rt_info>
				<attribute name="fused_names" version="0" value="Constant_425"/>
			</rt_info>
			<output>
				<port id="0" precision="I32">
					<dim>1</dim>
				</port>
			</output>
		</layer>
		<layer id="82" name="Gather_426" type="Gather" version="opset8">
			<data batch_dims="0"/>
			<rt_info>
				<attribute name="fused_names" version="0" value="Constant_424, Constant_425, Gather_426"/>
			</rt_info>
			<input>
				<port id="0" precision="I64">
					<dim>3</dim>
				</port>
				<port id="1" precision="I32">
					<dim>1</dim>
				</port>
				<port id="2" precision="I32">
					<dim>1</dim>
				</port>
			</input>
			<output>
				<port id="3" precision="I64">
					<dim>1</dim>
				</port>
			</output>
		</layer>
		<layer id="83" name="Broadcast_440" type="Broadcast" version="opset3">
			<data mode="numpy"/>
			<rt_info>
				<attribute name="fused_names" version="0" value="Broadcast_440"/>
			</rt_info>
			<input>
				<port id="0" precision="I64">
					<dim>1</dim>
				</port>
				<port id="1" precision="I64">
					<dim>1</dim>
				</port>
			</input>
			<output>
				<port id="2" precision="I64">
					<dim>1</dim>
				</port>
			</output>
		</layer>
		<layer id="84" name="Concat_419" type="Const" version="opset1">
			<data element_type="f32" shape="2, 1024, 80" offset="370752" size="655360"/>
			<output>
				<port id="0" precision="FP32">
					<dim>2</dim>
					<dim>1024</dim>
					<dim>80</dim>
				</port>
			</output>
		</layer>
		<layer id="85" name="Concat_422" type="Const" version="opset1">
			<data element_type="f32" shape="2, 1024, 256" offset="1026112" size="2097152"/>
			<output>
				<port id="0" precision="FP32">
					<dim>2</dim>
					<dim>1024</dim>
					<dim>256</dim>
				</port>
			</output>
		</layer>
		<layer id="86" name="Concat_439" type="Const" version="opset1">
			<data element_type="f32" shape="2, 1024" offset="3123264" size="8192"/>
			<output>
				<port id="0" precision="FP32">
					<dim>2</dim>
					<dim>1024</dim>
				</port>
			</output>
		</layer>
		<layer id="87" name="LSTMSequence_499" type="LSTMSequence" version="opset5">
			<data direction="bidirectional" hidden_size="256" activations="sigmoid, tanh, tanh" activations_alpha="" activations_beta="" clip="0"/>
			<rt_info>
				<attribute name="fused_names" version="0" value="Add_436, Concat_419, Concat_422, Concat_439, LSTMSequence_499, Split_418, Split_421, Split_435, Split_438"/>
			</rt_info>
			<input>
				<port id="0" precision="FP32">
					<dim>1</dim>
					<dim>250</dim>
					<dim>80</dim>
				</port>
				<port id="1" precision="FP32">
					<dim>1</dim>
					<dim>2</dim>
					<dim>256</dim>
				</port>
				<port id="2" precision="FP32">
					<dim>1</dim>
					<dim>2</dim>
					<dim>256</dim>
				</port>
				<port id="3" precision="I64">
					<dim>1</dim>
				</port>
				<port id="4" precision="FP32">
					<dim>2</dim>
					<dim>1024</dim>
					<dim>80</dim>
				</port>
				<port id="5" precision="FP32">
					<dim>2</dim>
					<dim>1024</dim>
					<dim>256</dim>
				</port>
				<port id="6" precision="FP32">
					<dim>2</dim>
					<dim>1024</dim>
				</port>
			</input>
			<output>
				<port id="7" precision="FP32">
					<dim>1</dim>
					<dim>2</dim>
					<dim>250</dim>
					<dim>256</dim>
				</port>
				<port id="8" precision="FP32">
					<dim>1</dim>
					<dim>2</dim>
					<dim>256</dim>
				</port>
				<port id="9" precision="FP32">
					<dim>1</dim>
					<dim>2</dim>
					<dim>256</dim>
				</port>
			</output>
		</layer>
		<layer id="88" name="Constant_3027" type="Const" version="opset1">
			<data element_type="i64" shape="4" offset="3131456" size="32"/>
			<output>
				<port id="0" precision="I64">
					<dim>4</dim>
				</port>
			</output>
		</layer>
		<layer id="89" name="242" type="Transpose" version="opset1">
			<rt_info>
				<attribute name="fused_names" version="0" value="239, 242"/>
			</rt_info>
			<input>
				<port id="0" precision="FP32">
					<dim>1</dim>
					<dim>2</dim>
					<dim>250</dim>
					<dim>256</dim>
				</port>
				<port id="1" precision="I64">
					<dim>4</dim>
				</port>
			</input>
			<output>
				<port id="2" precision="FP32" names="242">
					<dim>250</dim>
					<dim>1</dim>
					<dim>2</dim>
					<dim>256</dim>
				</port>
			</output>
		</layer>
		<layer id="90" name="243" type="Const" version="opset1">
			<data element_type="i64" shape="3" offset="3131488" size="24"/>
			<rt_info>
				<attribute name="fused_names" version="0" value="243"/>
			</rt_info>
			<output>
				<port id="0" precision="I64" names="243">
					<dim>3</dim>
				</port>
			</output>
		</layer>
		<layer id="91" name="244" type="Reshape" version="opset1">
			<data special_zero="true"/>
			<rt_info>
				<attribute name="fused_names" version="0" value="244"/>
			</rt_info>
			<input>
				<port id="0" precision="FP32">
					<dim>250</dim>
					<dim>1</dim>
					<dim>2</dim>
					<dim>256</dim>
				</port>
				<port id="1" precision="I64">
					<dim>3</dim>
				</port>
			</input>
			<output>
				<port id="2" precision="FP32" names="244">
					<dim>250</dim>
					<dim>1</dim>
					<dim>512</dim>
				</port>
			</output>
		</layer>
		<layer id="92" name="Constant_560" type="Const" version="opset1">
			<data element_type="i64" shape="3" offset="370724" size="24"/>
			<rt_info>
				<attribute name="fused_names" version="0" value="Constant_560"/>
			</rt_info>
			<output>
				<port id="0" precision="I64">
					<dim>3</dim>
				</port>
			</output>
		</layer>
		<layer id="93" name="Transpose_561" type="Transpose" version="opset1">
			<rt_info>
				<attribute name="fused_names" version="0" value="Transpose_561"/>
			</rt_info>
			<input>
				<port id="0" precision="FP32">
					<dim>250</dim>
					<dim>1</dim>
					<dim>512</dim>
				</port>
				<port id="1" precision="I64">
					<dim>3</dim>
				</port>
			</input>
			<output>
				<port id="2" precision="FP32">
					<dim>1</dim>
					<dim>250</dim>
					<dim>512</dim>
				</port>
			</output>
		</layer>
		<layer id="94" name="361" type="Const" version="opset1">
			<data element_type="i64" shape="1" offset="370708" size="8"/>
			<rt_info>
				<attribute name="fused_names" version="0" value="363, Broadcast_520"/>
			</rt_info>
			<output>
				<port id="0" precision="I64" names="361">
					<dim>1</dim>
				</port>
			</output>
		</layer>
		<layer id="95" name="362" type="Const" version="opset1">
			<data element_type="i64" shape="1" offset="370684" size="8"/>
			<rt_info>
				<attribute name="fused_names" version="0" value="363, Broadcast_520"/>
			</rt_info>
			<output>
				<port id="0" precision="I64" names="362">
					<dim>1</dim>
				</port>
			</output>
		</layer>
		<layer id="96" name="Broadcast_520" type="Const" version="opset1">
			<data element_type="i64" shape="1" offset="370716" size="8"/>
			<rt_info>
				<attribute name="fused_names" version="0" value="363, Broadcast_520"/>
			</rt_info>
			<output>
				<port id="0" precision="I64">
					<dim>1</dim>
				</port>
			</output>
		</layer>
		<layer id="97" name="363" type="StridedSlice" version="opset1">
			<data begin_mask="0" end_mask="0" new_axis_mask="" shrink_axis_mask="" ellipsis_mask=""/>
			<rt_info>
				<attribute name="fused_names" version="0" value="363, Broadcast_520"/>
			</rt_info>
			<input>
				<port id="0" precision="FP32">
					<dim>4</dim>
					<dim>1</dim>
					<dim>256</dim>
				</port>
				<port id="1" precision="I64">
					<dim>1</dim>
				</port>
				<port id="2" precision="I64">
					<dim>1</dim>
				</port>
				<port id="3" precision="I64">
					<dim>1</dim>
				</port>
			</input>
			<output>
				<port id="4" precision="FP32" names="363">
					<dim>2</dim>
					<dim>1</dim>
					<dim>256</dim>
				</port>
			</output>
		</layer>
		<layer id="98" name="Constant_600" type="Const" version="opset1">
			<data element_type="i64" shape="3" offset="370724" size="24"/>
			<rt_info>
				<attribute name="fused_names" version="0" value="Constant_600"/>
			</rt_info>
			<output>
				<port id="0" precision="I64">
					<dim>3</dim>
				</port>
			</output>
		</layer>
		<layer id="99" name="Transpose_601" type="Transpose" version="opset1">
			<rt_info>
				<attribute name="fused_names" version="0" value="Transpose_601"/>
			</rt_info>
			<input>
				<port id="0" precision="FP32">
					<dim>2</dim>
					<dim>1</dim>
					<dim>256</dim>
				</port>
				<port id="1" precision="I64">
					<dim>3</dim>
				</port>
			</input>
			<output>
				<port id="2" precision="FP32">
					<dim>1</dim>
					<dim>2</dim>
					<dim>256</dim>
				</port>
			</output>
		</layer>
		<layer id="100" name="365" type="Const" version="opset1">
			<data element_type="i64" shape="1" offset="370708" size="8"/>
			<rt_info>
				<attribute name="fused_names" version="0" value="367, Broadcast_542"/>
			</rt_info>
			<output>
				<port id="0" precision="I64" names="365">
					<dim>1</dim>
				</port>
			</output>
		</layer>
		<layer id="101" name="366" type="Const" version="opset1">
			<data element_type="i64" shape="1" offset="370684" size="8"/>
			<rt_info>
				<attribute name="fused_names" version="0" value="367, Broadcast_542"/>
			</rt_info>
			<output>
				<port id="0" precision="I64" names="366">
					<dim>1</dim>
				</port>
			</output>
		</layer>
		<layer id="102" name="Broadcast_542" type="Const" version="opset1">
			<data element_type="i64" shape="1" offset="370716" size="8"/>
			<rt_info>
				<attribute name="fused_names" version="0" value="367, Broadcast_542"/>
			</rt_info>
			<output>
				<port id="0" precision="I64">
					<dim>1</dim>
				</port>
			</output>
		</layer>
		<layer id="103" name="367" type="StridedSlice" version="opset1">
			<data begin_mask="0" end_mask="0" new_axis_mask="" shrink_axis_mask="" ellipsis_mask=""/>
			<rt_info>
				<attribute name="fused_names" version="0" value="367, Broadcast_542"/>
			</rt_info>
			<input>
				<port id="0" precision="FP32">
					<dim>4</dim>
					<dim>1</dim>
					<dim>256</dim>
				</port>
				<port id="1" precision="I64">
					<dim>1</dim>
				</port>
				<port id="2" precision="I64">
					<dim>1</dim>
				</port>
				<port id="3" precision="I64">
					<dim>1</dim>
				</port>
			</input>
			<output>
				<port id="4" precision="FP32" names="367">
					<dim>2</dim>
					<dim>1</dim>
					<dim>256</dim>
				</port>
			</output>
		</layer>
		<layer id="104" name="Constant_602" type="Const" version="opset1">
			<data element_type="i64" shape="3" offset="370724" size="24"/>
			<rt_info>
				<attribute name="fused_names" version="0" value="Constant_602"/>
			</rt_info>
			<output>
				<port id="0" precision="I64">
					<dim>3</dim>
				</port>
			</output>
		</layer>
		<layer id="105" name="Transpose_603" type="Transpose" version="opset1">
			<rt_info>
				<attribute name="fused_names" version="0" value="Transpose_603"/>
			</rt_info>
			<input>
				<port id="0" precision="FP32">
					<dim>2</dim>
					<dim>1</dim>
					<dim>256</dim>
				</port>
				<port id="1" precision="I64">
					<dim>3</dim>
				</port>
			</input>
			<output>
				<port id="2" precision="FP32">
					<dim>1</dim>
					<dim>2</dim>
					<dim>256</dim>
				</port>
			</output>
		</layer>
		<layer id="106" name="ShapeOf_568" type="ShapeOf" version="opset3">
			<data output_type="i64"/>
			<rt_info>
				<attribute name="fused_names" version="0" value="ShapeOf_568"/>
			</rt_info>
			<input>
				<port id="0" precision="FP32">
					<dim>1</dim>
					<dim>250</dim>
					<dim>512</dim>
				</port>
			</input>
			<output>
				<port id="1" precision="I64">
					<dim>3</dim>
				</port>
			</output>
		</layer>
		<layer id="107" name="Constant_572" type="Const" version="opset1">
			<data element_type="i32" shape="1" offset="370748" size="4"/>
			<rt_info>
				<attribute name="fused_names" version="0" value="Constant_572"/>
			</rt_info>
			<output>
				<port id="0" precision="I32">
					<dim>1</dim>
				</port>
			</output>
		</layer>
		<layer id="108" name="Constant_569" type="Const" version="opset1">
			<data element_type="i32" shape="1" offset="370680" size="4"/>
			<rt_info>
				<attribute name="fused_names" version="0" value="Constant_569"/>
			</rt_info>
			<output>
				<port id="0" precision="I32">
					<dim>1</dim>
				</port>
			</output>
		</layer>
		<layer id="109" name="Gather_573" type="Gather" version="opset8">
			<data batch_dims="0"/>
			<rt_info>
				<attribute name="fused_names" version="0" value="Constant_569, Gather_573"/>
			</rt_info>
			<input>
				<port id="0" precision="I64">
					<dim>3</dim>
				</port>
				<port id="1" precision="I32">
					<dim>1</dim>
				</port>
				<port id="2" precision="I32">
					<dim>1</dim>
				</port>
			</input>
			<output>
				<port id="3" precision="I64">
					<dim>1</dim>
				</port>
			</output>
		</layer>
		<layer id="110" name="Constant_570" type="Const" version="opset1">
			<data element_type="i32" shape="1" offset="370680" size="4"/>
			<rt_info>
				<attribute name="fused_names" version="0" value="Constant_570"/>
			</rt_info>
			<output>
				<port id="0" precision="I32">
					<dim>1</dim>
				</port>
			</output>
		</layer>
		<layer id="111" name="Gather_571" type="Gather" version="opset8">
			<data batch_dims="0"/>
			<rt_info>
				<attribute name="fused_names" version="0" value="Constant_569, Constant_570, Gather_571"/>
			</rt_info>
			<input>
				<port id="0" precision="I64">
					<dim>3</dim>
				</port>
				<port id="1" precision="I32">
					<dim>1</dim>
				</port>
				<port id="2" precision="I32">
					<dim>1</dim>
				</port>
			</input>
			<output>
				<port id="3" precision="I64">
					<dim>1</dim>
				</port>
			</output>
		</layer>
		<layer id="112" name="Broadcast_585" type="Broadcast" version="opset3">
			<data mode="numpy"/>
			<rt_info>
				<attribute name="fused_names" version="0" value="Broadcast_585"/>
			</rt_info>
			<input>
				<port id="0" precision="I64">
					<dim>1</dim>
				</port>
				<port id="1" precision="I64">
					<dim>1</dim>
				</port>
			</input>
			<output>
				<port id="2" precision="I64">
					<dim>1</dim>
				</port>
			</output>
		</layer>
		<layer id="113" name="Concat_564" type="Const" version="opset1">
			<data element_type="f32" shape="2, 1024, 512" offset="3131512" size="4194304"/>
			<output>
				<port id="0" precision="FP32">
					<dim>2</dim>
					<dim>1024</dim>
					<dim>512</dim>
				</port>
			</output>
		</layer>
		<layer id="114" name="Concat_567" type="Const" version="opset1">
			<data element_type="f32" shape="2, 1024, 256" offset="7325816" size="2097152"/>
			<output>
				<port id="0" precision="FP32">
					<dim>2</dim>
					<dim>1024</dim>
					<dim>256</dim>
				</port>
			</output>
		</layer>
		<layer id="115" name="Concat_584" type="Const" version="opset1">
			<data element_type="f32" shape="2, 1024" offset="9422968" size="8192"/>
			<output>
				<port id="0" precision="FP32">
					<dim>2</dim>
					<dim>1024</dim>
				</port>
			</output>
		</layer>
		<layer id="116" name="LSTMSequence_644" type="LSTMSequence" version="opset5">
			<data direction="bidirectional" hidden_size="256" activations="sigmoid, tanh, tanh" activations_alpha="" activations_beta="" clip="0"/>
			<rt_info>
				<attribute name="fused_names" version="0" value="Add_581, Concat_564, Concat_567, Concat_584, LSTMSequence_644, Split_563, Split_566, Split_580, Split_583"/>
			</rt_info>
			<input>
				<port id="0" precision="FP32">
					<dim>1</dim>
					<dim>250</dim>
					<dim>512</dim>
				</port>
				<port id="1" precision="FP32">
					<dim>1</dim>
					<dim>2</dim>
					<dim>256</dim>
				</port>
				<port id="2" precision="FP32">
					<dim>1</dim>
					<dim>2</dim>
					<dim>256</dim>
				</port>
				<port id="3" precision="I64">
					<dim>1</dim>
				</port>
				<port id="4" precision="FP32">
					<dim>2</dim>
					<dim>1024</dim>
					<dim>512</dim>
				</port>
				<port id="5" precision="FP32">
					<dim>2</dim>
					<dim>1024</dim>
					<dim>256</dim>
				</port>
				<port id="6" precision="FP32">
					<dim>2</dim>
					<dim>1024</dim>
				</port>
			</input>
			<output>
				<port id="7" precision="FP32">
					<dim>1</dim>
					<dim>2</dim>
					<dim>250</dim>
					<dim>256</dim>
				</port>
				<port id="8" precision="FP32">
					<dim>1</dim>
					<dim>2</dim>
					<dim>256</dim>
				</port>
				<port id="9" precision="FP32">
					<dim>1</dim>
					<dim>2</dim>
					<dim>256</dim>
				</port>
			</output>
		</layer>
		<layer id="117" name="Constant_3029" type="Const" version="opset1">
			<data element_type="i64" shape="4" offset="3131456" size="32"/>
			<output>
				<port id="0" precision="I64">
					<dim>4</dim>
				</port>
			</output>
		</layer>
		<layer id="118" name="371" type="Transpose" version="opset1">
			<rt_info>
				<attribute name="fused_names" version="0" value="368, 371"/>
			</rt_info>
			<input>
				<port id="0" precision="FP32">
					<dim>1</dim>
					<dim>2</dim>
					<dim>250</dim>
					<dim>256</dim>
				</port>
				<port id="1" precision="I64">
					<dim>4</dim>
				</port>
			</input>
			<output>
				<port id="2" precision="FP32" names="371">
					<dim>250</dim>
					<dim>1</dim>
					<dim>2</dim>
					<dim>256</dim>
				</port>
			</output>
		</layer>
		<layer id="119" name="372" type="Const" version="opset1">
			<data element_type="i64" shape="3" offset="3131488" size="24"/>
			<rt_info>
				<attribute name="fused_names" version="0" value="372"/>
			</rt_info>
			<output>
				<port id="0" precision="I64" names="372">
					<dim>3</dim>
				</port>
			</output>
		</layer>
		<layer id="120" name="373" type="Reshape" version="opset1">
			<data special_zero="true"/>
			<rt_info>
				<attribute name="fused_names" version="0" value="373"/>
			</rt_info>
			<input>
				<port id="0" precision="FP32">
					<dim>250</dim>
					<dim>1</dim>
					<dim>2</dim>
					<dim>256</dim>
				</port>
				<port id="1" precision="I64">
					<dim>3</dim>
				</port>
			</input>
			<output>
				<port id="2" precision="FP32" names="373">
					<dim>250</dim>
					<dim>1</dim>
					<dim>512</dim>
				</port>
			</output>
		</layer>
		<layer id="121" name="Constant_707" type="Const" version="opset1">
			<data element_type="i64" shape="3" offset="370724" size="24"/>
			<rt_info>
				<attribute name="fused_names" version="0" value="Constant_707"/>
			</rt_info>
			<output>
				<port id="0" precision="I64">
					<dim>3</dim>
				</port>
			</output>
		</layer>
		<layer id="122" name="Transpose_708" type="Transpose" version="opset1">
			<rt_info>
				<attribute name="fused_names" version="0" value="Transpose_708"/>
			</rt_info>
			<input>
				<port id="0" precision="FP32">
					<dim>250</dim>
					<dim>1</dim>
					<dim>512</dim>
				</port>
				<port id="1" precision="I64">
					<dim>3</dim>
				</port>
			</input>
			<output>
				<port id="2" precision="FP32">
					<dim>1</dim>
					<dim>250</dim>
					<dim>512</dim>
				</port>
			</output>
		</layer>
		<layer id="123" name="Constant_502" type="Const" version="opset1">
			<data element_type="i64" shape="3" offset="370724" size="24"/>
			<rt_info>
				<attribute name="fused_names" version="0" value="Constant_502"/>
			</rt_info>
			<output>
				<port id="0" precision="I64">
					<dim>3</dim>
				</port>
			</output>
		</layer>
		<layer id="124" name="240" type="Transpose" version="opset1">
			<rt_info>
				<attribute name="fused_names" version="0" value="240"/>
			</rt_info>
			<input>
				<port id="0" precision="FP32">
					<dim>1</dim>
					<dim>2</dim>
					<dim>256</dim>
				</port>
				<port id="1" precision="I64">
					<dim>3</dim>
				</port>
			</input>
			<output>
				<port id="2" precision="FP32" names="240">
					<dim>2</dim>
					<dim>1</dim>
					<dim>256</dim>
				</port>
			</output>
		</layer>
		<layer id="125" name="Constant_647" type="Const" version="opset1">
			<data element_type="i64" shape="3" offset="370724" size="24"/>
			<rt_info>
				<attribute name="fused_names" version="0" value="Constant_647"/>
			</rt_info>
			<output>
				<port id="0" precision="I64">
					<dim>3</dim>
				</port>
			</output>
		</layer>
		<layer id="126" name="369" type="Transpose" version="opset1">
			<rt_info>
				<attribute name="fused_names" version="0" value="369"/>
			</rt_info>
			<input>
				<port id="0" precision="FP32">
					<dim>1</dim>
					<dim>2</dim>
					<dim>256</dim>
				</port>
				<port id="1" precision="I64">
					<dim>3</dim>
				</port>
			</input>
			<output>
				<port id="2" precision="FP32" names="369">
					<dim>2</dim>
					<dim>1</dim>
					<dim>256</dim>
				</port>
			</output>
		</layer>
		<layer id="127" name="374" type="Concat" version="opset1">
			<data axis="0"/>
			<rt_info>
				<attribute name="fused_names" version="0" value="374"/>
			</rt_info>
			<input>
				<port id="0" precision="FP32">
					<dim>2</dim>
					<dim>1</dim>
					<dim>256</dim>
				</port>
				<port id="1" precision="FP32">
					<dim>2</dim>
					<dim>1</dim>
					<dim>256</dim>
				</port>
			</input>
			<output>
				<port id="2" precision="FP32" names="374">
					<dim>4</dim>
					<dim>1</dim>
					<dim>256</dim>
				</port>
			</output>
		</layer>
		<layer id="128" name="493" type="Const" version="opset1">
			<data element_type="i64" shape="1" offset="370692" size="8"/>
			<rt_info>
				<attribute name="fused_names" version="0" value="495, Broadcast_667"/>
			</rt_info>
			<output>
				<port id="0" precision="I64" names="493">
					<dim>1</dim>
				</port>
			</output>
		</layer>
		<layer id="129" name="494" type="Const" version="opset1">
			<data element_type="i64" shape="1" offset="370708" size="8"/>
			<rt_info>
				<attribute name="fused_names" version="0" value="495, Broadcast_667"/>
			</rt_info>
			<output>
				<port id="0" precision="I64" names="494">
					<dim>1</dim>
				</port>
			</output>
		</layer>
		<layer id="130" name="Broadcast_667" type="Const" version="opset1">
			<data element_type="i64" shape="1" offset="370716" size="8"/>
			<rt_info>
				<attribute name="fused_names" version="0" value="495, Broadcast_667"/>
			</rt_info>
			<output>
				<port id="0" precision="I64">
					<dim>1</dim>
				</port>
			</output>
		</layer>
		<layer id="131" name="495" type="StridedSlice" version="opset1">
			<data begin_mask="0" end_mask="0" new_axis_mask="" shrink_axis_mask="" ellipsis_mask=""/>
			<rt_info>
				<attribute name="fused_names" version="0" value="495, Broadcast_667"/>
			</rt_info>
			<input>
				<port id="0" precision="FP32">
					<dim>4</dim>
					<dim>1</dim>
					<dim>256</dim>
				</port>
				<port id="1" precision="I64">
					<dim>1</dim>
				</port>
				<port id="2" precision="I64">
					<dim>1</dim>
				</port>
				<port id="3" precision="I64">
					<dim>1</dim>
				</port>
			</input>
			<output>
				<port id="4" precision="FP32" names="495">
					<dim>2</dim>
					<dim>1</dim>
					<dim>256</dim>
				</port>
			</output>
		</layer>
		<layer id="132" name="Constant_747" type="Const" version="opset1">
			<data element_type="i64" shape="3" offset="370724" size="24"/>
			<rt_info>
				<attribute name="fused_names" version="0" value="Constant_747"/>
			</rt_info>
			<output>
				<port id="0" precision="I64">
					<dim>3</dim>
				</port>
			</output>
		</layer>
		<layer id="133" name="Transpose_748" type="Transpose" version="opset1">
			<rt_info>
				<attribute name="fused_names" version="0" value="Transpose_748"/>
			</rt_info>
			<input>
				<port id="0" precision="FP32">
					<dim>2</dim>
					<dim>1</dim>
					<dim>256</dim>
				</port>
				<port id="1" precision="I64">
					<dim>3</dim>
				</port>
			</input>
			<output>
				<port id="2" precision="FP32">
					<dim>1</dim>
					<dim>2</dim>
					<dim>256</dim>
				</port>
			</output>
		</layer>
		<layer id="134" name="Constant_504" type="Const" version="opset1">
			<data element_type="i64" shape="3" offset="370724" size="24"/>
			<rt_info>
				<attribute name="fused_names" version="0" value="Constant_504"/>
			</rt_info>
			<output>
				<port id="0" precision="I64">
					<dim>3</dim>
				</port>
			</output>
		</layer>
		<layer id="135" name="241" type="Transpose" version="opset1">
			<rt_info>
				<attribute name="fused_names" version="0" value="241"/>
			</rt_info>
			<input>
				<port id="0" precision="FP32">
					<dim>1</dim>
					<dim>2</dim>
					<dim>256</dim>
				</port>
				<port id="1" precision="I64">
					<dim>3</dim>
				</port>
			</input>
			<output>
				<port id="2" precision="FP32" names="241">
					<dim>2</dim>
					<dim>1</dim>
					<dim>256</dim>
				</port>
			</output>
		</layer>
		<layer id="136" name="Constant_649" type="Const" version="opset1">
			<data element_type="i64" shape="3" offset="370724" size="24"/>
			<rt_info>
				<attribute name="fused_names" version="0" value="Constant_649"/>
			</rt_info>
			<output>
				<port id="0" precision="I64">
					<dim>3</dim>
				</port>
			</output>
		</layer>
		<layer id="137" name="370" type="Transpose" version="opset1">
			<rt_info>
				<attribute name="fused_names" version="0" value="370"/>
			</rt_info>
			<input>
				<port id="0" precision="FP32">
					<dim>1</dim>
					<dim>2</dim>
					<dim>256</dim>
				</port>
				<port id="1" precision="I64">
					<dim>3</dim>
				</port>
			</input>
			<output>
				<port id="2" precision="FP32" names="370">
					<dim>2</dim>
					<dim>1</dim>
					<dim>256</dim>
				</port>
			</output>
		</layer>
		<layer id="138" name="375" type="Concat" version="opset1">
			<data axis="0"/>
			<rt_info>
				<attribute name="fused_names" version="0" value="375"/>
			</rt_info>
			<input>
				<port id="0" precision="FP32">
					<dim>2</dim>
					<dim>1</dim>
					<dim>256</dim>
				</port>
				<port id="1" precision="FP32">
					<dim>2</dim>
					<dim>1</dim>
					<dim>256</dim>
				</port>
			</input>
			<output>
				<port id="2" precision="FP32" names="375">
					<dim>4</dim>
					<dim>1</dim>
					<dim>256</dim>
				</port>
			</output>
		</layer>
		<layer id="139" name="497" type="Const" version="opset1">
			<data element_type="i64" shape="1" offset="370692" size="8"/>
			<rt_info>
				<attribute name="fused_names" version="0" value="499, Broadcast_689"/>
			</rt_info>
			<output>
				<port id="0" precision="I64" names="497">
					<dim>1</dim>
				</port>
			</output>
		</layer>
		<layer id="140" name="498" type="Const" version="opset1">
			<data element_type="i64" shape="1" offset="370708" size="8"/>
			<rt_info>
				<attribute name="fused_names" version="0" value="499, Broadcast_689"/>
			</rt_info>
			<output>
				<port id="0" precision="I64" names="498">
					<dim>1</dim>
				</port>
			</output>
		</layer>
		<layer id="141" name="Broadcast_689" type="Const" version="opset1">
			<data element_type="i64" shape="1" offset="370716" size="8"/>
			<rt_info>
				<attribute name="fused_names" version="0" value="499, Broadcast_689"/>
			</rt_info>
			<output>
				<port id="0" precision="I64">
					<dim>1</dim>
				</port>
			</output>
		</layer>
		<layer id="142" name="499" type="StridedSlice" version="opset1">
			<data begin_mask="0" end_mask="0" new_axis_mask="" shrink_axis_mask="" ellipsis_mask=""/>
			<rt_info>
				<attribute name="fused_names" version="0" value="499, Broadcast_689"/>
			</rt_info>
			<input>
				<port id="0" precision="FP32">
					<dim>4</dim>
					<dim>1</dim>
					<dim>256</dim>
				</port>
				<port id="1" precision="I64">
					<dim>1</dim>
				</port>
				<port id="2" precision="I64">
					<dim>1</dim>
				</port>
				<port id="3" precision="I64">
					<dim>1</dim>
				</port>
			</input>
			<output>
				<port id="4" precision="FP32" names="499">
					<dim>2</dim>
					<dim>1</dim>
					<dim>256</dim>
				</port>
			</output>
		</layer>
		<layer id="143" name="Constant_749" type="Const" version="opset1">
			<data element_type="i64" shape="3" offset="370724" size="24"/>
			<rt_info>
				<attribute name="fused_names" version="0" value="Constant_749"/>
			</rt_info>
			<output>
				<port id="0" precision="I64">
					<dim>3</dim>
				</port>
			</output>
		</layer>
		<layer id="144" name="Transpose_750" type="Transpose" version="opset1">
			<rt_info>
				<attribute name="fused_names" version="0" value="Transpose_750"/>
			</rt_info>
			<input>
				<port id="0" precision="FP32">
					<dim>2</dim>
					<dim>1</dim>
					<dim>256</dim>
				</port>
				<port id="1" precision="I64">
					<dim>3</dim>
				</port>
			</input>
			<output>
				<port id="2" precision="FP32">
					<dim>1</dim>
					<dim>2</dim>
					<dim>256</dim>
				</port>
			</output>
		</layer>
		<layer id="145" name="ShapeOf_715" type="ShapeOf" version="opset3">
			<data output_type="i64"/>
			<rt_info>
				<attribute name="fused_names" version="0" value="ShapeOf_715"/>
			</rt_info>
			<input>
				<port id="0" precision="FP32">
					<dim>1</dim>
					<dim>250</dim>
					<dim>512</dim>
				</port>
			</input>
			<output>
				<port id="1" precision="I64">
					<dim>3</dim>
				</port>
			</output>
		</layer>
		<layer id="146" name="Constant_719" type="Const" version="opset1">
			<data element_type="i32" shape="1" offset="370748" size="4"/>
			<rt_info>
				<attribute name="fused_names" version="0" value="Constant_719"/>
			</rt_info>
			<output>
				<port id="0" precision="I32">
					<dim>1</dim>
				</port>
			</output>
		</layer>
		<layer id="147" name="Constant_716" type="Const" version="opset1">
			<data element_type="i32" shape="1" offset="370680" size="4"/>
			<rt_info>
				<attribute name="fused_names" version="0" value="Constant_716"/>
			</rt_info>
			<output>
				<port id="0" precision="I32">
					<dim>1</dim>
				</port>
			</output>
		</layer>
		<layer id="148" name="Gather_720" type="Gather" version="opset8">
			<data batch_dims="0"/>
			<rt_info>
				<attribute name="fused_names" version="0" value="Constant_716, Gather_720"/>
			</rt_info>
			<input>
				<port id="0" precision="I64">
					<dim>3</dim>
				</port>
				<port id="1" precision="I32">
					<dim>1</dim>
				</port>
				<port id="2" precision="I32">
					<dim>1</dim>
				</port>
			</input>
			<output>
				<port id="3" precision="I64">
					<dim>1</dim>
				</port>
			</output>
		</layer>
		<layer id="149" name="Constant_717" type="Const" version="opset1">
			<data element_type="i32" shape="1" offset="370680" size="4"/>
			<rt_info>
				<attribute name="fused_names" version="0" value="Constant_717"/>
			</rt_info>
			<output>
				<port id="0" precision="I32">
					<dim>1</dim>
				</port>
			</output>
		</layer>
		<layer id="150" name="Gather_718" type="Gather" version="opset8">
			<data batch_dims="0"/>
			<rt_info>
				<attribute name="fused_names" version="0" value="Constant_716, Constant_717, Gather_718"/>
			</rt_info>
			<input>
				<port id="0" precision="I64">
					<dim>3</dim>
				</port>
				<port id="1" precision="I32">
					<dim>1</dim>
				</port>
				<port id="2" precision="I32">
					<dim>1</dim>
				</port>
			</input>
			<output>
				<port id="3" precision="I64">
					<dim>1</dim>
				</port>
			</output>
		</layer>
		<layer id="151" name="Broadcast_732" type="Broadcast" version="opset3">
			<data mode="numpy"/>
			<rt_info>
				<attribute name="fused_names" version="0" value="Broadcast_732"/>
			</rt_info>
			<input>
				<port id="0" precision="I64">
					<dim>1</dim>
				</port>
				<port id="1" precision="I64">
					<dim>1</dim>
				</port>
			</input>
			<output>
				<port id="2" precision="I64">
					<dim>1</dim>
				</port>
			</output>
		</layer>
		<layer id="152" name="Concat_711" type="Const" version="opset1">
			<data element_type="f32" shape="2, 1024, 512" offset="9431160" size="4194304"/>
			<output>
				<port id="0" precision="FP32">
					<dim>2</dim>
					<dim>1024</dim>
					<dim>512</dim>
				</port>
			</output>
		</layer>
		<layer id="153" name="Concat_714" type="Const" version="opset1">
			<data element_type="f32" shape="2, 1024, 256" offset="13625464" size="2097152"/>
			<output>
				<port id="0" precision="FP32">
					<dim>2</dim>
					<dim>1024</dim>
					<dim>256</dim>
				</port>
			</output>
		</layer>
		<layer id="154" name="Concat_731" type="Const" version="opset1">
			<data element_type="f32" shape="2, 1024" offset="15722616" size="8192"/>
			<output>
				<port id="0" precision="FP32">
					<dim>2</dim>
					<dim>1024</dim>
				</port>
			</output>
		</layer>
		<layer id="155" name="LSTMSequence_791" type="LSTMSequence" version="opset5">
			<data direction="bidirectional" hidden_size="256" activations="sigmoid, tanh, tanh" activations_alpha="" activations_beta="" clip="0"/>
			<rt_info>
				<attribute name="fused_names" version="0" value="Add_728, Concat_711, Concat_714, Concat_731, LSTMSequence_791, Split_710, Split_713, Split_727, Split_730"/>
			</rt_info>
			<input>
				<port id="0" precision="FP32">
					<dim>1</dim>
					<dim>250</dim>
					<dim>512</dim>
				</port>
				<port id="1" precision="FP32">
					<dim>1</dim>
					<dim>2</dim>
					<dim>256</dim>
				</port>
				<port id="2" precision="FP32">
					<dim>1</dim>
					<dim>2</dim>
					<dim>256</dim>
				</port>
				<port id="3" precision="I64">
					<dim>1</dim>
				</port>
				<port id="4" precision="FP32">
					<dim>2</dim>
					<dim>1024</dim>
					<dim>512</dim>
				</port>
				<port id="5" precision="FP32">
					<dim>2</dim>
					<dim>1024</dim>
					<dim>256</dim>
				</port>
				<port id="6" precision="FP32">
					<dim>2</dim>
					<dim>1024</dim>
				</port>
			</input>
			<output>
				<port id="7" precision="FP32">
					<dim>1</dim>
					<dim>2</dim>
					<dim>250</dim>
					<dim>256</dim>
				</port>
				<port id="8" precision="FP32">
					<dim>1</dim>
					<dim>2</dim>
					<dim>256</dim>
				</port>
				<port id="9" precision="FP32">
					<dim>1</dim>
					<dim>2</dim>
					<dim>256</dim>
				</port>
			</output>
		</layer>
		<layer id="156" name="Constant_3031" type="Const" version="opset1">
			<data element_type="i64" shape="4" offset="3131456" size="32"/>
			<output>
				<port id="0" precision="I64">
					<dim>4</dim>
				</port>
			</output>
		</layer>
		<layer id="157" name="503" type="Transpose" version="opset1">
			<rt_info>
				<attribute name="fused_names" version="0" value="500, 503"/>
			</rt_info>
			<input>
				<port id="0" precision="FP32">
					<dim>1</dim>
					<dim>2</dim>
					<dim>250</dim>
					<dim>256</dim>
				</port>
				<port id="1" precision="I64">
					<dim>4</dim>
				</port>
			</input>
			<output>
				<port id="2" precision="FP32" names="503">
					<dim>250</dim>
					<dim>1</dim>
					<dim>2</dim>
					<dim>256</dim>
				</port>
			</output>
		</layer>
		<layer id="158" name="504" type="Const" version="opset1">
			<data element_type="i64" shape="3" offset="3131488" size="24"/>
			<rt_info>
				<attribute name="fused_names" version="0" value="504"/>
			</rt_info>
			<output>
				<port id="0" precision="I64" names="504">
					<dim>3</dim>
				</port>
			</output>
		</layer>
		<layer id="159" name="505" type="Reshape" version="opset1">
			<data special_zero="true"/>
			<rt_info>
				<attribute name="fused_names" version="0" value="505"/>
			</rt_info>
			<input>
				<port id="0" precision="FP32">
					<dim>250</dim>
					<dim>1</dim>
					<dim>2</dim>
					<dim>256</dim>
				</port>
				<port id="1" precision="I64">
					<dim>3</dim>
				</port>
			</input>
			<output>
				<port id="2" precision="FP32" names="505">
					<dim>250</dim>
					<dim>1</dim>
					<dim>512</dim>
				</port>
			</output>
		</layer>
		<layer id="160" name="Constant_852" type="Const" version="opset1">
			<data element_type="i64" shape="3" offset="370724" size="24"/>
			<rt_info>
				<attribute name="fused_names" version="0" value="Constant_852"/>
			</rt_info>
			<output>
				<port id="0" precision="I64">
					<dim>3</dim>
				</port>
			</output>
		</layer>
		<layer id="161" name="Transpose_853" type="Transpose" version="opset1">
			<rt_info>
				<attribute name="fused_names" version="0" value="Transpose_853"/>
			</rt_info>
			<input>
				<port id="0" precision="FP32">
					<dim>250</dim>
					<dim>1</dim>
					<dim>512</dim>
				</port>
				<port id="1" precision="I64">
					<dim>3</dim>
				</port>
			</input>
			<output>
				<port id="2" precision="FP32">
					<dim>1</dim>
					<dim>250</dim>
					<dim>512</dim>
				</port>
			</output>
		</layer>
		<layer id="162" name="622" type="Const" version="opset1">
			<data element_type="i64" shape="1" offset="370708" size="8"/>
			<rt_info>
				<attribute name="fused_names" version="0" value="624, Broadcast_812"/>
			</rt_info>
			<output>
				<port id="0" precision="I64" names="622">
					<dim>1</dim>
				</port>
			</output>
		</layer>
		<layer id="163" name="623" type="Const" version="opset1">
			<data element_type="i64" shape="1" offset="370684" size="8"/>
			<rt_info>
				<attribute name="fused_names" version="0" value="624, Broadcast_812"/>
			</rt_info>
			<output>
				<port id="0" precision="I64" names="623">
					<dim>1</dim>
				</port>
			</output>
		</layer>
		<layer id="164" name="Broadcast_812" type="Const" version="opset1">
			<data element_type="i64" shape="1" offset="370716" size="8"/>
			<rt_info>
				<attribute name="fused_names" version="0" value="624, Broadcast_812"/>
			</rt_info>
			<output>
				<port id="0" precision="I64">
					<dim>1</dim>
				</port>
			</output>
		</layer>
		<layer id="165" name="624" type="StridedSlice" version="opset1">
			<data begin_mask="0" end_mask="0" new_axis_mask="" shrink_axis_mask="" ellipsis_mask=""/>
			<rt_info>
				<attribute name="fused_names" version="0" value="624, Broadcast_812"/>
			</rt_info>
			<input>
				<port id="0" precision="FP32">
					<dim>4</dim>
					<dim>1</dim>
					<dim>256</dim>
				</port>
				<port id="1" precision="I64">
					<dim>1</dim>
				</port>
				<port id="2" precision="I64">
					<dim>1</dim>
				</port>
				<port id="3" precision="I64">
					<dim>1</dim>
				</port>
			</input>
			<output>
				<port id="4" precision="FP32" names="624">
					<dim>2</dim>
					<dim>1</dim>
					<dim>256</dim>
				</port>
			</output>
		</layer>
		<layer id="166" name="Constant_892" type="Const" version="opset1">
			<data element_type="i64" shape="3" offset="370724" size="24"/>
			<rt_info>
				<attribute name="fused_names" version="0" value="Constant_892"/>
			</rt_info>
			<output>
				<port id="0" precision="I64">
					<dim>3</dim>
				</port>
			</output>
		</layer>
		<layer id="167" name="Transpose_893" type="Transpose" version="opset1">
			<rt_info>
				<attribute name="fused_names" version="0" value="Transpose_893"/>
			</rt_info>
			<input>
				<port id="0" precision="FP32">
					<dim>2</dim>
					<dim>1</dim>
					<dim>256</dim>
				</port>
				<port id="1" precision="I64">
					<dim>3</dim>
				</port>
			</input>
			<output>
				<port id="2" precision="FP32">
					<dim>1</dim>
					<dim>2</dim>
					<dim>256</dim>
				</port>
			</output>
		</layer>
		<layer id="168" name="626" type="Const" version="opset1">
			<data element_type="i64" shape="1" offset="370708" size="8"/>
			<rt_info>
				<attribute name="fused_names" version="0" value="628, Broadcast_834"/>
			</rt_info>
			<output>
				<port id="0" precision="I64" names="626">
					<dim>1</dim>
				</port>
			</output>
		</layer>
		<layer id="169" name="627" type="Const" version="opset1">
			<data element_type="i64" shape="1" offset="370684" size="8"/>
			<rt_info>
				<attribute name="fused_names" version="0" value="628, Broadcast_834"/>
			</rt_info>
			<output>
				<port id="0" precision="I64" names="627">
					<dim>1</dim>
				</port>
			</output>
		</layer>
		<layer id="170" name="Broadcast_834" type="Const" version="opset1">
			<data element_type="i64" shape="1" offset="370716" size="8"/>
			<rt_info>
				<attribute name="fused_names" version="0" value="628, Broadcast_834"/>
			</rt_info>
			<output>
				<port id="0" precision="I64">
					<dim>1</dim>
				</port>
			</output>
		</layer>
		<layer id="171" name="628" type="StridedSlice" version="opset1">
			<data begin_mask="0" end_mask="0" new_axis_mask="" shrink_axis_mask="" ellipsis_mask=""/>
			<rt_info>
				<attribute name="fused_names" version="0" value="628, Broadcast_834"/>
			</rt_info>
			<input>
				<port id="0" precision="FP32">
					<dim>4</dim>
					<dim>1</dim>
					<dim>256</dim>
				</port>
				<port id="1" precision="I64">
					<dim>1</dim>
				</port>
				<port id="2" precision="I64">
					<dim>1</dim>
				</port>
				<port id="3" precision="I64">
					<dim>1</dim>
				</port>
			</input>
			<output>
				<port id="4" precision="FP32" names="628">
					<dim>2</dim>
					<dim>1</dim>
					<dim>256</dim>
				</port>
			</output>
		</layer>
		<layer id="172" name="Constant_894" type="Const" version="opset1">
			<data element_type="i64" shape="3" offset="370724" size="24"/>
			<rt_info>
				<attribute name="fused_names" version="0" value="Constant_894"/>
			</rt_info>
			<output>
				<port id="0" precision="I64">
					<dim>3</dim>
				</port>
			</output>
		</layer>
		<layer id="173" name="Transpose_895" type="Transpose" version="opset1">
			<rt_info>
				<attribute name="fused_names" version="0" value="Transpose_895"/>
			</rt_info>
			<input>
				<port id="0" precision="FP32">
					<dim>2</dim>
					<dim>1</dim>
					<dim>256</dim>
				</port>
				<port id="1" precision="I64">
					<dim>3</dim>
				</port>
			</input>
			<output>
				<port id="2" precision="FP32">
					<dim>1</dim>
					<dim>2</dim>
					<dim>256</dim>
				</port>
			</output>
		</layer>
		<layer id="174" name="ShapeOf_860" type="ShapeOf" version="opset3">
			<data output_type="i64"/>
			<rt_info>
				<attribute name="fused_names" version="0" value="ShapeOf_860"/>
			</rt_info>
			<input>
				<port id="0" precision="FP32">
					<dim>1</dim>
					<dim>250</dim>
					<dim>512</dim>
				</port>
			</input>
			<output>
				<port id="1" precision="I64">
					<dim>3</dim>
				</port>
			</output>
		</layer>
		<layer id="175" name="Constant_864" type="Const" version="opset1">
			<data element_type="i32" shape="1" offset="370748" size="4"/>
			<rt_info>
				<attribute name="fused_names" version="0" value="Constant_864"/>
			</rt_info>
			<output>
				<port id="0" precision="I32">
					<dim>1</dim>
				</port>
			</output>
		</layer>
		<layer id="176" name="Constant_861" type="Const" version="opset1">
			<data element_type="i32" shape="1" offset="370680" size="4"/>
			<rt_info>
				<attribute name="fused_names" version="0" value="Constant_861"/>
			</rt_info>
			<output>
				<port id="0" precision="I32">
					<dim>1</dim>
				</port>
			</output>
		</layer>
		<layer id="177" name="Gather_865" type="Gather" version="opset8">
			<data batch_dims="0"/>
			<rt_info>
				<attribute name="fused_names" version="0" value="Constant_861, Gather_865"/>
			</rt_info>
			<input>
				<port id="0" precision="I64">
					<dim>3</dim>
				</port>
				<port id="1" precision="I32">
					<dim>1</dim>
				</port>
				<port id="2" precision="I32">
					<dim>1</dim>
				</port>
			</input>
			<output>
				<port id="3" precision="I64">
					<dim>1</dim>
				</port>
			</output>
		</layer>
		<layer id="178" name="Constant_862" type="Const" version="opset1">
			<data element_type="i32" shape="1" offset="370680" size="4"/>
			<rt_info>
				<attribute name="fused_names" version="0" value="Constant_862"/>
			</rt_info>
			<output>
				<port id="0" precision="I32">
					<dim>1</dim>
				</port>
			</output>
		</layer>
		<layer id="179" name="Gather_863" type="Gather" version="opset8">
			<data batch_dims="0"/>
			<rt_info>
				<attribute name="fused_names" version="0" value="Constant_861, Constant_862, Gather_863"/>
			</rt_info>
			<input>
				<port id="0" precision="I64">
					<dim>3</dim>
				</port>
				<port id="1" precision="I32">
					<dim>1</dim>
				</port>
				<port id="2" precision="I32">
					<dim>1</dim>
				</port>
			</input>
			<output>
				<port id="3" precision="I64">
					<dim>1</dim>
				</port>
			</output>
		</layer>
		<layer id="180" name="Broadcast_877" type="Broadcast" version="opset3">
			<data mode="numpy"/>
			<rt_info>
				<attribute name="fused_names" version="0" value="Broadcast_877"/>
			</rt_info>
			<input>
				<port id="0" precision="I64">
					<dim>1</dim>
				</port>
				<port id="1" precision="I64">
					<dim>1</dim>
				</port>
			</input>
			<output>
				<port id="2" precision="I64">
					<dim>1</dim>
				</port>
			</output>
		</layer>
		<layer id="181" name="Concat_856" type="Const" version="opset1">
			<data element_type="f32" shape="2, 1024, 512" offset="15730808" size="4194304"/>
			<output>
				<port id="0" precision="FP32">
					<dim>2</dim>
					<dim>1024</dim>
					<dim>512</dim>
				</port>
			</output>
		</layer>
		<layer id="182" name="Concat_859" type="Const" version="opset1">
			<data element_type="f32" shape="2, 1024, 256" offset="19925112" size="2097152"/>
			<output>
				<port id="0" precision="FP32">
					<dim>2</dim>
					<dim>1024</dim>
					<dim>256</dim>
				</port>
			</output>
		</layer>
		<layer id="183" name="Concat_876" type="Const" version="opset1">
			<data element_type="f32" shape="2, 1024" offset="22022264" size="8192"/>
			<output>
				<port id="0" precision="FP32">
					<dim>2</dim>
					<dim>1024</dim>
				</port>
			</output>
		</layer>
		<layer id="184" name="LSTMSequence_936" type="LSTMSequence" version="opset5">
			<data direction="bidirectional" hidden_size="256" activations="sigmoid, tanh, tanh" activations_alpha="" activations_beta="" clip="0"/>
			<rt_info>
				<attribute name="fused_names" version="0" value="Add_873, Concat_856, Concat_859, Concat_876, LSTMSequence_936, Split_855, Split_858, Split_872, Split_875"/>
			</rt_info>
			<input>
				<port id="0" precision="FP32">
					<dim>1</dim>
					<dim>250</dim>
					<dim>512</dim>
				</port>
				<port id="1" precision="FP32">
					<dim>1</dim>
					<dim>2</dim>
					<dim>256</dim>
				</port>
				<port id="2" precision="FP32">
					<dim>1</dim>
					<dim>2</dim>
					<dim>256</dim>
				</port>
				<port id="3" precision="I64">
					<dim>1</dim>
				</port>
				<port id="4" precision="FP32">
					<dim>2</dim>
					<dim>1024</dim>
					<dim>512</dim>
				</port>
				<port id="5" precision="FP32">
					<dim>2</dim>
					<dim>1024</dim>
					<dim>256</dim>
				</port>
				<port id="6" precision="FP32">
					<dim>2</dim>
					<dim>1024</dim>
				</port>
			</input>
			<output>
				<port id="7" precision="FP32">
					<dim>1</dim>
					<dim>2</dim>
					<dim>250</dim>
					<dim>256</dim>
				</port>
				<port id="8" precision="FP32">
					<dim>1</dim>
					<dim>2</dim>
					<dim>256</dim>
				</port>
				<port id="9" precision="FP32">
					<dim>1</dim>
					<dim>2</dim>
					<dim>256</dim>
				</port>
			</output>
		</layer>
		<layer id="185" name="Constant_3033" type="Const" version="opset1">
			<data element_type="i64" shape="4" offset="3131456" size="32"/>
			<output>
				<port id="0" precision="I64">
					<dim>4</dim>
				</port>
			</output>
		</layer>
		<layer id="186" name="632" type="Transpose" version="opset1">
			<rt_info>
				<attribute name="fused_names" version="0" value="629, 632"/>
			</rt_info>
			<input>
				<port id="0" precision="FP32">
					<dim>1</dim>
					<dim>2</dim>
					<dim>250</dim>
					<dim>256</dim>
				</port>
				<port id="1" precision="I64">
					<dim>4</dim>
				</port>
			</input>
			<output>
				<port id="2" precision="FP32" names="632">
					<dim>250</dim>
					<dim>1</dim>
					<dim>2</dim>
					<dim>256</dim>
				</port>
			</output>
		</layer>
		<layer id="187" name="633" type="Const" version="opset1">
			<data element_type="i64" shape="3" offset="3131488" size="24"/>
			<rt_info>
				<attribute name="fused_names" version="0" value="633"/>
			</rt_info>
			<output>
				<port id="0" precision="I64" names="633">
					<dim>3</dim>
				</port>
			</output>
		</layer>
		<layer id="188" name="634" type="Reshape" version="opset1">
			<data special_zero="true"/>
			<rt_info>
				<attribute name="fused_names" version="0" value="634"/>
			</rt_info>
			<input>
				<port id="0" precision="FP32">
					<dim>250</dim>
					<dim>1</dim>
					<dim>2</dim>
					<dim>256</dim>
				</port>
				<port id="1" precision="I64">
					<dim>3</dim>
				</port>
			</input>
			<output>
				<port id="2" precision="FP32" names="634">
					<dim>250</dim>
					<dim>1</dim>
					<dim>512</dim>
				</port>
			</output>
		</layer>
		<layer id="189" name="Constant_952" type="Const" version="opset1">
			<data element_type="i64" shape="3" offset="370724" size="24"/>
			<rt_info>
				<attribute name="fused_names" version="0" value="Constant_952"/>
			</rt_info>
			<output>
				<port id="0" precision="I64">
					<dim>3</dim>
				</port>
			</output>
		</layer>
		<layer id="190" name="635" type="Transpose" version="opset1">
			<rt_info>
				<attribute name="fused_names" version="0" value="635"/>
			</rt_info>
			<input>
				<port id="0" precision="FP32">
					<dim>250</dim>
					<dim>1</dim>
					<dim>512</dim>
				</port>
				<port id="1" precision="I64">
					<dim>3</dim>
				</port>
			</input>
			<output>
				<port id="2" precision="FP32" names="635">
					<dim>1</dim>
					<dim>250</dim>
					<dim>512</dim>
				</port>
			</output>
		</layer>
		<layer id="191" name="Constant_3061" type="Const" version="opset1">
			<data element_type="f32" shape="95, 512" offset="22030456" size="194560"/>
			<rt_info>
				<attribute name="fused_names" version="0" value="637, 833"/>
			</rt_info>
			<output>
				<port id="0" precision="FP32">
					<dim>95</dim>
					<dim>512</dim>
				</port>
			</output>
		</layer>
		<layer id="192" name="637" type="MatMul" version="opset1">
			<data transpose_a="false" transpose_b="true"/>
			<rt_info>
				<attribute name="fused_names" version="0" value="637, 833"/>
			</rt_info>
			<input>
				<port id="0" precision="FP32">
					<dim>1</dim>
					<dim>250</dim>
					<dim>512</dim>
				</port>
				<port id="1" precision="FP32">
					<dim>95</dim>
					<dim>512</dim>
				</port>
			</input>
			<output>
				<port id="2" precision="FP32" names="637">
					<dim>1</dim>
					<dim>250</dim>
					<dim>95</dim>
				</port>
			</output>
		</layer>
		<layer id="193" name="638" type="Add" version="opset1">
			<data auto_broadcast="numpy"/>
			<rt_info>
				<attribute name="fused_names" version="0" value="638"/>
			</rt_info>
			<input>
				<port id="0" precision="FP32">
					<dim>1</dim>
					<dim>1</dim>
					<dim>95</dim>
				</port>
				<port id="1" precision="FP32">
					<dim>1</dim>
					<dim>250</dim>
					<dim>95</dim>
				</port>
			</input>
			<output>
				<port id="2" precision="FP32" names="638">
					<dim>1</dim>
					<dim>250</dim>
					<dim>95</dim>
				</port>
			</output>
		</layer>
		<layer id="194" name="Constant_956" type="Const" version="opset1">
			<data element_type="i64" shape="3" offset="370724" size="24"/>
			<rt_info>
				<attribute name="fused_names" version="0" value="Constant_956"/>
			</rt_info>
			<output>
				<port id="0" precision="I64">
					<dim>3</dim>
				</port>
			</output>
		</layer>
		<layer id="195" name="output" type="Transpose" version="opset1">
			<rt_info>
				<attribute name="fused_names" version="0" value="output"/>
			</rt_info>
			<input>
				<port id="0" precision="FP32">
					<dim>1</dim>
					<dim>250</dim>
					<dim>95</dim>
				</port>
				<port id="1" precision="I64">
					<dim>3</dim>
				</port>
			</input>
			<output>
				<port id="2" precision="FP32" names="output">
					<dim>250</dim>
					<dim>1</dim>
					<dim>95</dim>
				</port>
			</output>
		</layer>
		<layer id="196" name="output/sink_port_0" type="Result" version="opset1">
			<rt_info>
				<attribute name="fused_names" version="0" value="output/sink_port_0"/>
			</rt_info>
			<input>
				<port id="0" precision="FP32">
					<dim>250</dim>
					<dim>1</dim>
					<dim>95</dim>
				</port>
			</input>
		</layer>
	</layers>
	<edges>
		<edge from-layer="0" from-port="0" to-layer="4" to-port="0"/>
		<edge from-layer="1" from-port="0" to-layer="193" to-port="0"/>
		<edge from-layer="2" from-port="0" to-layer="42" to-port="0"/>
		<edge from-layer="3" from-port="0" to-layer="4" to-port="1"/>
		<edge from-layer="4" from-port="2" to-layer="6" to-port="0"/>
		<edge from-layer="5" from-port="0" to-layer="6" to-port="1"/>
		<edge from-layer="6" from-port="2" to-layer="8" to-port="0"/>
		<edge from-layer="7" from-port="0" to-layer="8" to-port="1"/>
		<edge from-layer="8" from-port="2" to-layer="10" to-port="0"/>
		<edge from-layer="9" from-port="0" to-layer="10" to-port="1"/>
		<edge from-layer="10" from-port="2" to-layer="11" to-port="0"/>
		<edge from-layer="11" from-port="1" to-layer="13" to-port="0"/>
		<edge from-layer="12" from-port="0" to-layer="13" to-port="1"/>
		<edge from-layer="13" from-port="2" to-layer="15" to-port="0"/>
		<edge from-layer="14" from-port="0" to-layer="15" to-port="1"/>
		<edge from-layer="15" from-port="2" to-layer="17" to-port="0"/>
		<edge from-layer="16" from-port="0" to-layer="17" to-port="1"/>
		<edge from-layer="17" from-port="2" to-layer="18" to-port="0"/>
		<edge from-layer="18" from-port="1" to-layer="20" to-port="0"/>
		<edge from-layer="19" from-port="0" to-layer="20" to-port="1"/>
		<edge from-layer="20" from-port="2" to-layer="22" to-port="0"/>
		<edge from-layer="21" from-port="0" to-layer="22" to-port="1"/>
		<edge from-layer="22" from-port="2" to-layer="24" to-port="0"/>
		<edge from-layer="23" from-port="0" to-layer="24" to-port="1"/>
		<edge from-layer="24" from-port="2" to-layer="25" to-port="0"/>
		<edge from-layer="25" from-port="1" to-layer="27" to-port="0"/>
		<edge from-layer="26" from-port="0" to-layer="27" to-port="1"/>
		<edge from-layer="27" from-port="2" to-layer="29" to-port="0"/>
		<edge from-layer="28" from-port="0" to-layer="29" to-port="1"/>
		<edge from-layer="29" from-port="2" to-layer="31" to-port="0"/>
		<edge from-layer="30" from-port="0" to-layer="31" to-port="1"/>
		<edge from-layer="31" from-port="2" to-layer="33" to-port="0"/>
		<edge from-layer="32" from-port="0" to-layer="33" to-port="1"/>
		<edge from-layer="33" from-port="2" to-layer="35" to-port="0"/>
		<edge from-layer="34" from-port="0" to-layer="35" to-port="1"/>
		<edge from-layer="35" from-port="2" to-layer="37" to-port="0"/>
		<edge from-layer="36" from-port="0" to-layer="37" to-port="1"/>
		<edge from-layer="37" from-port="2" to-layer="39" to-port="0"/>
		<edge from-layer="38" from-port="0" to-layer="39" to-port="1"/>
		<edge from-layer="39" from-port="2" to-layer="41" to-port="0"/>
		<edge from-layer="40" from-port="0" to-layer="41" to-port="1"/>
		<edge from-layer="41" from-port="2" to-layer="42" to-port="1"/>
		<edge from-layer="42" from-port="2" to-layer="44" to-port="0"/>
		<edge from-layer="43" from-port="0" to-layer="44" to-port="1"/>
		<edge from-layer="44" from-port="2" to-layer="46" to-port="0"/>
		<edge from-layer="44" from-port="2" to-layer="50" to-port="0"/>
		<edge from-layer="45" from-port="0" to-layer="46" to-port="1"/>
		<edge from-layer="46" from-port="2" to-layer="87" to-port="0"/>
		<edge from-layer="46" from-port="2" to-layer="77" to-port="0"/>
		<edge from-layer="47" from-port="0" to-layer="57" to-port="0"/>
		<edge from-layer="48" from-port="0" to-layer="56" to-port="0"/>
		<edge from-layer="49" from-port="0" to-layer="50" to-port="1"/>
		<edge from-layer="50" from-port="2" to-layer="51" to-port="0"/>
		<edge from-layer="51" from-port="1" to-layer="54" to-port="0"/>
		<edge from-layer="51" from-port="1" to-layer="67" to-port="0"/>
		<edge from-layer="52" from-port="0" to-layer="54" to-port="1"/>
		<edge from-layer="53" from-port="0" to-layer="67" to-port="2"/>
		<edge from-layer="53" from-port="0" to-layer="54" to-port="2"/>
		<edge from-layer="54" from-port="3" to-layer="56" to-port="1"/>
		<edge from-layer="55" from-port="0" to-layer="56" to-port="2"/>
		<edge from-layer="56" from-port="3" to-layer="57" to-port="1"/>
		<edge from-layer="57" from-port="2" to-layer="61" to-port="0"/>
		<edge from-layer="57" from-port="2" to-layer="97" to-port="0"/>
		<edge from-layer="58" from-port="0" to-layer="61" to-port="1"/>
		<edge from-layer="59" from-port="0" to-layer="61" to-port="2"/>
		<edge from-layer="60" from-port="0" to-layer="61" to-port="3"/>
		<edge from-layer="61" from-port="4" to-layer="63" to-port="0"/>
		<edge from-layer="62" from-port="0" to-layer="63" to-port="1"/>
		<edge from-layer="63" from-port="2" to-layer="87" to-port="1"/>
		<edge from-layer="64" from-port="0" to-layer="70" to-port="0"/>
		<edge from-layer="65" from-port="0" to-layer="69" to-port="0"/>
		<edge from-layer="66" from-port="0" to-layer="67" to-port="1"/>
		<edge from-layer="67" from-port="3" to-layer="69" to-port="1"/>
		<edge from-layer="68" from-port="0" to-layer="69" to-port="2"/>
		<edge from-layer="69" from-port="3" to-layer="70" to-port="1"/>
		<edge from-layer="70" from-port="2" to-layer="103" to-port="0"/>
		<edge from-layer="70" from-port="2" to-layer="74" to-port="0"/>
		<edge from-layer="71" from-port="0" to-layer="74" to-port="1"/>
		<edge from-layer="72" from-port="0" to-layer="74" to-port="2"/>
		<edge from-layer="73" from-port="0" to-layer="74" to-port="3"/>
		<edge from-layer="74" from-port="4" to-layer="76" to-port="0"/>
		<edge from-layer="75" from-port="0" to-layer="76" to-port="1"/>
		<edge from-layer="76" from-port="2" to-layer="87" to-port="2"/>
		<edge from-layer="77" from-port="1" to-layer="80" to-port="0"/>
		<edge from-layer="77" from-port="1" to-layer="82" to-port="0"/>
		<edge from-layer="78" from-port="0" to-layer="80" to-port="1"/>
		<edge from-layer="79" from-port="0" to-layer="80" to-port="2"/>
		<edge from-layer="79" from-port="0" to-layer="82" to-port="2"/>
		<edge from-layer="80" from-port="3" to-layer="83" to-port="0"/>
		<edge from-layer="81" from-port="0" to-layer="82" to-port="1"/>
		<edge from-layer="82" from-port="3" to-layer="83" to-port="1"/>
		<edge from-layer="83" from-port="2" to-layer="87" to-port="3"/>
		<edge from-layer="84" from-port="0" to-layer="87" to-port="4"/>
		<edge from-layer="85" from-port="0" to-layer="87" to-port="5"/>
		<edge from-layer="86" from-port="0" to-layer="87" to-port="6"/>
		<edge from-layer="87" from-port="8" to-layer="124" to-port="0"/>
		<edge from-layer="87" from-port="9" to-layer="135" to-port="0"/>
		<edge from-layer="87" from-port="7" to-layer="89" to-port="0"/>
		<edge from-layer="88" from-port="0" to-layer="89" to-port="1"/>
		<edge from-layer="89" from-port="2" to-layer="91" to-port="0"/>
		<edge from-layer="90" from-port="0" to-layer="91" to-port="1"/>
		<edge from-layer="91" from-port="2" to-layer="93" to-port="0"/>
		<edge from-layer="92" from-port="0" to-layer="93" to-port="1"/>
		<edge from-layer="93" from-port="2" to-layer="116" to-port="0"/>
		<edge from-layer="93" from-port="2" to-layer="106" to-port="0"/>
		<edge from-layer="94" from-port="0" to-layer="97" to-port="1"/>
		<edge from-layer="95" from-port="0" to-layer="97" to-port="2"/>
		<edge from-layer="96" from-port="0" to-layer="97" to-port="3"/>
		<edge from-layer="97" from-port="4" to-layer="99" to-port="0"/>
		<edge from-layer="98" from-port="0" to-layer="99" to-port="1"/>
		<edge from-layer="99" from-port="2" to-layer="116" to-port="1"/>
		<edge from-layer="100" from-port="0" to-layer="103" to-port="1"/>
		<edge from-layer="101" from-port="0" to-layer="103" to-port="2"/>
		<edge from-layer="102" from-port="0" to-layer="103" to-port="3"/>
		<edge from-layer="103" from-port="4" to-layer="105" to-port="0"/>
		<edge from-layer="104" from-port="0" to-layer="105" to-port="1"/>
		<edge from-layer="105" from-port="2" to-layer="116" to-port="2"/>
		<edge from-layer="106" from-port="1" to-layer="109" to-port="0"/>
		<edge from-layer="106" from-port="1" to-layer="111" to-port="0"/>
		<edge from-layer="107" from-port="0" to-layer="109" to-port="1"/>
		<edge from-layer="108" from-port="0" to-layer="111" to-port="2"/>
		<edge from-layer="108" from-port="0" to-layer="109" to-port="2"/>
		<edge from-layer="109" from-port="3" to-layer="112" to-port="0"/>
		<edge from-layer="110" from-port="0" to-layer="111" to-port="1"/>
		<edge from-layer="111" from-port="3" to-layer="112" to-port="1"/>
		<edge from-layer="112" from-port="2" to-layer="116" to-port="3"/>
		<edge from-layer="113" from-port="0" to-layer="116" to-port="4"/>
		<edge from-layer="114" from-port="0" to-layer="116" to-port="5"/>
		<edge from-layer="115" from-port="0" to-layer="116" to-port="6"/>
		<edge from-layer="116" from-port="7" to-layer="118" to-port="0"/>
		<edge from-layer="116" from-port="8" to-layer="126" to-port="0"/>
		<edge from-layer="116" from-port="9" to-layer="137" to-port="0"/>
		<edge from-layer="117" from-port="0" to-layer="118" to-port="1"/>
		<edge from-layer="118" from-port="2" to-layer="120" to-port="0"/>
		<edge from-layer="119" from-port="0" to-layer="120" to-port="1"/>
		<edge from-layer="120" from-port="2" to-layer="122" to-port="0"/>
		<edge from-layer="121" from-port="0" to-layer="122" to-port="1"/>
		<edge from-layer="122" from-port="2" to-layer="145" to-port="0"/>
		<edge from-layer="122" from-port="2" to-layer="155" to-port="0"/>
		<edge from-layer="123" from-port="0" to-layer="124" to-port="1"/>
		<edge from-layer="124" from-port="2" to-layer="127" to-port="0"/>
		<edge from-layer="125" from-port="0" to-layer="126" to-port="1"/>
		<edge from-layer="126" from-port="2" to-layer="127" to-port="1"/>
		<edge from-layer="127" from-port="2" to-layer="165" to-port="0"/>
		<edge from-layer="127" from-port="2" to-layer="131" to-port="0"/>
		<edge from-layer="128" from-port="0" to-layer="131" to-port="1"/>
		<edge from-layer="129" from-port="0" to-layer="131" to-port="2"/>
		<edge from-layer="130" from-port="0" to-layer="131" to-port="3"/>
		<edge from-layer="131" from-port="4" to-layer="133" to-port="0"/>
		<edge from-layer="132" from-port="0" to-layer="133" to-port="1"/>
		<edge from-layer="133" from-port="2" to-layer="155" to-port="1"/>
		<edge from-layer="134" from-port="0" to-layer="135" to-port="1"/>
		<edge from-layer="135" from-port="2" to-layer="138" to-port="0"/>
		<edge from-layer="136" from-port="0" to-layer="137" to-port="1"/>
		<edge from-layer="137" from-port="2" to-layer="138" to-port="1"/>
		<edge from-layer="138" from-port="2" to-layer="142" to-port="0"/>
		<edge from-layer="138" from-port="2" to-layer="171" to-port="0"/>
		<edge from-layer="139" from-port="0" to-layer="142" to-port="1"/>
		<edge from-layer="140" from-port="0" to-layer="142" to-port="2"/>
		<edge from-layer="141" from-port="0" to-layer="142" to-port="3"/>
		<edge from-layer="142" from-port="4" to-layer="144" to-port="0"/>
		<edge from-layer="143" from-port="0" to-layer="144" to-port="1"/>
		<edge from-layer="144" from-port="2" to-layer="155" to-port="2"/>
		<edge from-layer="145" from-port="1" to-layer="150" to-port="0"/>
		<edge from-layer="145" from-port="1" to-layer="148" to-port="0"/>
		<edge from-layer="146" from-port="0" to-layer="148" to-port="1"/>
		<edge from-layer="147" from-port="0" to-layer="150" to-port="2"/>
		<edge from-layer="147" from-port="0" to-layer="148" to-port="2"/>
		<edge from-layer="148" from-port="3" to-layer="151" to-port="0"/>
		<edge from-layer="149" from-port="0" to-layer="150" to-port="1"/>
		<edge from-layer="150" from-port="3" to-layer="151" to-port="1"/>
		<edge from-layer="151" from-port="2" to-layer="155" to-port="3"/>
		<edge from-layer="152" from-port="0" to-layer="155" to-port="4"/>
		<edge from-layer="153" from-port="0" to-layer="155" to-port="5"/>
		<edge from-layer="154" from-port="0" to-layer="155" to-port="6"/>
		<edge from-layer="155" from-port="7" to-layer="157" to-port="0"/>
		<edge from-layer="156" from-port="0" to-layer="157" to-port="1"/>
		<edge from-layer="157" from-port="2" to-layer="159" to-port="0"/>
		<edge from-layer="158" from-port="0" to-layer="159" to-port="1"/>
		<edge from-layer="159" from-port="2" to-layer="161" to-port="0"/>
		<edge from-layer="160" from-port="0" to-layer="161" to-port="1"/>
		<edge from-layer="161" from-port="2" to-layer="174" to-port="0"/>
		<edge from-layer="161" from-port="2" to-layer="184" to-port="0"/>
		<edge from-layer="162" from-port="0" to-layer="165" to-port="1"/>
		<edge from-layer="163" from-port="0" to-layer="165" to-port="2"/>
		<edge from-layer="164" from-port="0" to-layer="165" to-port="3"/>
		<edge from-layer="165" from-port="4" to-layer="167" to-port="0"/>
		<edge from-layer="166" from-port="0" to-layer="167" to-port="1"/>
		<edge from-layer="167" from-port="2" to-layer="184" to-port="1"/>
		<edge from-layer="168" from-port="0" to-layer="171" to-port="1"/>
		<edge from-layer="169" from-port="0" to-layer="171" to-port="2"/>
		<edge from-layer="170" from-port="0" to-layer="171" to-port="3"/>
		<edge from-layer="171" from-port="4" to-layer="173" to-port="0"/>
		<edge from-layer="172" from-port="0" to-layer="173" to-port="1"/>
		<edge from-layer="173" from-port="2" to-layer="184" to-port="2"/>
		<edge from-layer="174" from-port="1" to-layer="177" to-port="0"/>
		<edge from-layer="174" from-port="1" to-layer="179" to-port="0"/>
		<edge from-layer="175" from-port="0" to-layer="177" to-port="1"/>
		<edge from-layer="176" from-port="0" to-layer="177" to-port="2"/>
		<edge from-layer="176" from-port="0" to-layer="179" to-port="2"/>
		<edge from-layer="177" from-port="3" to-layer="180" to-port="0"/>
		<edge from-layer="178" from-port="0" to-layer="179" to-port="1"/>
		<edge from-layer="179" from-port="3" to-layer="180" to-port="1"/>
		<edge from-layer="180" from-port="2" to-layer="184" to-port="3"/>
		<edge from-layer="181" from-port="0" to-layer="184" to-port="4"/>
		<edge from-layer="182" from-port="0" to-layer="184" to-port="5"/>
		<edge from-layer="183" from-port="0" to-layer="184" to-port="6"/>
		<edge from-layer="184" from-port="7" to-layer="186" to-port="0"/>
		<edge from-layer="185" from-port="0" to-layer="186" to-port="1"/>
		<edge from-layer="186" from-port="2" to-layer="188" to-port="0"/>
		<edge from-layer="187" from-port="0" to-layer="188" to-port="1"/>
		<edge from-layer="188" from-port="2" to-layer="190" to-port="0"/>
		<edge from-layer="189" from-port="0" to-layer="190" to-port="1"/>
		<edge from-layer="190" from-port="2" to-layer="192" to-port="0"/>
		<edge from-layer="191" from-port="0" to-layer="192" to-port="1"/>
		<edge from-layer="192" from-port="2" to-layer="193" to-port="1"/>
		<edge from-layer="193" from-port="2" to-layer="195" to-port="0"/>
		<edge from-layer="194" from-port="0" to-layer="195" to-port="1"/>
		<edge from-layer="195" from-port="2" to-layer="196" to-port="0"/>
	</edges>
	<meta_data>
		<MO_version value="2022.1.0-6910-173f328c53d"/>
		<Runtime_version value="2022.1.0-6910-173f328c53d"/>
		<legacy_path value="False"/>
		<cli_parameters>
			<caffe_parser_path value="DIR"/>
			<compress_fp16 value="False"/>
			<data_type value="FP32"/>
			<disable_nhwc_to_nchw value="False"/>
			<disable_omitting_optional value="False"/>
			<disable_resnet_optimization value="False"/>
			<disable_weights_compression value="False"/>
			<enable_concat_optimization value="False"/>
			<enable_flattening_nested_params value="False"/>
			<enable_ssd_gluoncv value="False"/>
			<extensions value="DIR"/>
			<framework value="onnx"/>
			<freeze_placeholder_with_value value="{}"/>
			<generate_deprecated_IR_V7 value="False"/>
			<input value="actual_input"/>
			<input_model value="DIR/handwritten-english-recognition-0001.onnx"/>
			<input_model_is_text value="False"/>
			<input_shape value="[1,1,96,2000]"/>
			<k value="DIR/CustomLayersMapping.xml"/>
			<keep_shape_ops value="True"/>
			<layout value="actual_input(nchw)"/>
			<layout_values value="{'actual_input': {'source_layout': 'nchw', 'target_layout': None, 'is_input': True}}"/>
			<legacy_ir_generation value="False"/>
			<legacy_mxnet_model value="False"/>
			<log_level value="ERROR"/>
			<mean_scale_values value="{'actual_input': {'mean': array([127.5]), 'scale': array([127.5])}}"/>
			<mean_values value="actual_input[127.5]"/>
			<model_name value="handwritten-english-recognition-0001"/>
			<output value="['output']"/>
			<output_dir value="DIR"/>
			<placeholder_data_types value="{}"/>
			<placeholder_shapes value="{'actual_input': (1, 1, 96, 2000)}"/>
			<progress value="False"/>
			<remove_memory value="False"/>
			<remove_output_softmax value="False"/>
			<reverse_input_channels value="False"/>
			<save_params_from_nd value="False"/>
			<scale_values value="actual_input[127.5]"/>
			<silent value="False"/>
			<source_layout value="()"/>
			<static_shape value="False"/>
			<stream_output value="False"/>
			<target_layout value="()"/>
			<transform value=""/>
			<use_legacy_frontend value="False"/>
			<use_new_frontend value="False"/>
			<unset unset_cli_parameters="batch, counts, disable_fusing, disable_gfusing, finegrain_fusing, input_checkpoint, input_meta_graph, input_proto, input_symbol, mean_file, mean_file_offsets, move_to_preprocess, nd_prefix_name, pretrained_model_name, saved_model_dir, saved_model_tags, scale, tensorboard_logdir, tensorflow_custom_layer_libraries, tensorflow_custom_operations_config_update, tensorflow_object_detection_api_pipeline_config, tensorflow_use_custom_operations_config, transformations_config"/>
		</cli_parameters>
	</meta_data>
</net>
